train/AEmodels/AE_conv_8_3_real_flux_all_all_leakeyRELU_log1020exp.pth (torch, 78159 bytes, 52 tensors)

weight f4 [8, 8, 5, 4]
0.3359121 0.9101643 0.35528558 0.14338301 -0.035652157 1.119974 0.7222405 1.2016957
0.3980452 0.38613832 0.21021445 0.6080324 0.053648103 1.0174489 0.5275557 -0.10428047
1.1458436 0.77879834 1.4244928 0.95296603 1.1660268 1.6422329 1.5026492 2.1863775
0.9453168 1.7130051 1.4350029 1.665704 0.8781908 1.1121423 1.1137229 0.84831834
0.7458565 1.6202339 1.5038097 1.0339689 0.6763427 1.3830259 0.7368669 0.32708475
1.308301 1.7552269 2.4317462 1.5958668 0.79714525 2.4340837 2.8985186 1.7144806
1.2534541 2.3915195 2.8105829 2.0039473 0.68647593 2.7140925 2.1201692 2.1235971
1.3933567 2.5529656 2.6878316 1.1416711 -0.83659625 -0.27422327 0.27765858 0.10647393
-0.3103204 1.5633316 1.3715607 0.32696044 0.21518674 1.1381644 1.5493469 0.19801377
-0.47839877 1.9583433 2.152844 0.83667403 0.62789273 2.040648 2.1808217 1.2896887
-0.44639102 0.314808 0.23499289 -0.21142316 -0.80672973 -0.46171382 0.4570827 -0.5263293
-1.2325912 1.2915083 -0.14469914 -0.41216582 -1.2030673 0.0040686885 0.3018753 0.1959299
-1.3407738 0.123094834 1.0310676 -0.016782869 0.40055752 0.5194689 0.7162428 0.22512425
0.47368237 0.37698662 -0.3019042 -0.28432864 -0.2618254 0.67186874 1.20533 0.26391008
0.3567336 -0.52654797 0.50361115 0.64846516 0.3566866 1.3685383 0.34175196 0.13148846
2.4934692 1.0865439 0.38593122 0.8492094 0.7727277 2.1169193 0.650192 0.66563267
1.0035766 1.0964746 0.74025977 0.32530516 0.10135595 1.8286176 0.17251474 -0.8253204
0.86036736 0.14277364 0.07617698 0.5486235 1.7911534 1.4796801 0.32720336 0.80973005
1.4431984 1.1896988 0.09421785 1.0202187 1.6980262 1.0832235 0.62739074 0.08460847
0.95635283 1.2092292 0.8659604 -0.102226466 0.9904166 1.4617282 -0.060880594 0.5623506
-1.0006326 -1.4444497 0.70603806 -0.37463012 -0.7989921 -1.2694099 0.7796916 0.18710053
-0.95391417 -1.235352 0.6832838 0.41077727 -0.6722298 -1.0483085 0.32570592 1.2272011
-0.90577406 -1.1409372 0.72263044 0.76566786 -1.0581574 -1.5730673 -0.39733526 -0.14990017
-1.1121011 -1.7103529 -1.0784892 -0.5707163 -1.059487 -1.4920988 -0.4090434 -0.85050565
-1.0105817 -1.1918033 0.047469754 0.7174994 -0.9413184 -1.2676207 -0.19380458 0.001140887
-0.48832303 -1.1506523 -0.13738036 -0.06529961 -0.5391386 -1.6240046 -1.2923796 -1.2685562
-0.84674644 -1.8531121 -1.1460168 -0.38533115 -1.07298 -1.3541179 0.25213137 -0.003813381
-1.2268063 -1.900908 -0.7389198 -0.620538 -0.24070604 -0.7535376 -0.8327356 -0.40948495
-0.8360984 -1.2497548 -0.6913363 -0.2648411 -0.42220718 -1.0241468 -0.44571573 0.3437533
-0.08632255 -1.358762 0.67982954 -1.3143306 -0.6761373 -1.0589889 -0.43705115 -0.3832115
-0.13342641 -1.3999745 -0.32725373 0.4636419 -0.36304167 -0.1944451 -0.069110654 -0.36199668
-0.4127008 -0.56213063 -1.2958474 0.24443671 -0.2706501 0.015465246 0.15184131 0.26257536
00000000: acfc ab3e 8700 693f fee7 b53e ffd2 123e
00000010: ff07 12bd 4f5b 8f3f c1e4 383f 2ad1 993f
00000020: 95cc cb3e ecb3 c53e 7542 573e 03a8 1b3f
00000030: 1dbe 5b3d c43b 823f e40d 073f 0091 d5bd
00000040: 01ab 923f 545f 473f c855 b63f 95f5 733f
00000050: 5e40 953f b034 d23f cf56 c03f 9ced 0b40
00000060: 4800 723f c043 db3f 2dae b73f ca35 d53f
00000070: 1dd1 603f ae5a 8e3f 798e 8e3f 642b 593f
00000080: 74f0 3e3f d363 cf3f d67c c03f 1859 843f
00000090: cc24 2d3f fe06 b13f 4fa3 3c3f a777 a73e
000000a0: 6876 a73f 46ab e03f bba1 1b40 5d45 cc3f
000000b0: b611 4c3f 07c8 1b40 5481 3940 1a74 db3f
000000c0: 2f71 a03f a80e 1940 97e0 3340 ac40 0040
000000d0: e3bc 2f3f b1b3 2d40 dab0 0740 04e9 0740
000000e0: 8359 b23f ca63 2340 6f05 2c40 4722 923f
000000f0: 2c2b 56bf fe66 8cbe 4429 8e3e 010f da3d
00000100: 51e2 9ebe 401b c83f 4d8f af3f 5c67 a73e
00000110: ea59 5c3e 5faf 913f 0051 c63f 1fc4 4a3e
00000120: aff0 f4be feaa fa3f 32c8 0940 4530 563f
00000130: 94bd 203f fa99 0240 9592 0b40 8514 a53f
00000140: 5d8d e4be 842e a13e faa1 703e 507f 58be
00000150: d785 4ebf c165 ecbe be06 ea3e 84bd 06bf
00000160: 8cc5 9dbf 2550 a53f 032c 14be 6607 d3be
00000170: 1cfe 99bf a252 853b 668f 9a3e d9a1 483e
00000180: 7a9e abbf 2519 fc3d 06fa 833f 3a7c 89bc
00000190: e015 cd3e eafb 043f b05b 373f f986 663e
000001a0: 7f86 f23e 6404 c13e 3093 9abe 8693 91be
000001b0: fb0d 86be 97ff 2b3f 4148 9a3f 391f 873e
000001c0: c9a5 b63e d9cb 06bf a9ec 003f d001 263f
000001d0: a09f b63e 432c af3f 1dfa ae3e e9a4 063e
000001e0: 0095 1f40 df13 8b3f c798 c53e ca65 593f
000001f0: 7cd1 453f 9b7b 0740 fc72 263f e766 2a3f
00000200: 3375 803f 4859 8c3f aa81 3d3f 668e a63e
00000210: b593 cf3d 2410 ea3f b4a7 303e 3348 53bf
00000220: 0941 5c3f 4133 123e ad02 9c3d 9772 0c3f
00000230: 8444 e53f 2866 bd3f 3387 a73e 784a 4f3f
00000240: baba b83f 0d48 983f 4af5 c03d 8796 823f
00000250: ec58 d93f 11a7 8a3f ae9c 203f 3547 ad3d
00000260: 8ad3 743f 06c8 9a3f 95af 5d3f 1c5c d1bd
00000270: f18b 7d3f e919 bb3f ee5d 79bd 35f6 0f3f
00000280: bb14 80bf bae3 b8bf e9be 343f 85cf bfbe
00000290: bf8a 4cbf 067c a2bf de99 473f 4897 3f3e
000002a0: b833 74bf 0420 9ebf b0eb 2e3f 6651 d23e
000002b0: 4117 2cbf f92e 86bf edc2 a63e ed14 9d3f
000002c0: cfe0 67bf 3b0a 92bf 4ffe 383f cf02 443f
000002d0: b471 87bf 455a c9bf 876f cbbe 6e7f 19be
000002e0: 5459 8ebf d8ec dabf ef0b 8abf 771a 12bf
000002f0: 459d 87bf 18fd bebf 236e d1be bdba 59bf
00000300: be5a 81bf 038d 98bf a56f 423d 0aae 373f
00000310: 3efa 70bf 6541 a2bf b574 46be d189 953a
00000320: 7a05 fabe 9348 93bf 70ad 0cbe cdbb 85bd
00000330: fd04 0abf 62df cfbf b26c a5bf 0d60 a2bf
00000340: 60c4 58bf c732 edbf aeb0 92bf 204a c5be
00000350: 6957 89bf bc53 adbf 5d17 813e ebe9 79bb
00000360: fd07 9dbf f450 f3bf d929 3dbf 94db 1ebf
00000370: a57b 76be d7e7 40bf 292e 55bf 03a8 d1be
00000380: 8b0a 56bf f7f7 9fbf 6afb 30bf 4199 87be
00000390: 8a2b d8be 3e17 83bf da34 e4be 6f00 b03e
000003a0: e1c9 b0bd eaeb adbf 4f09 2e3f fc3b a8bf
000003b0: 5617 2dbf f38c 87bf 2bc5 dfbe 4c34 c4be
000003c0: efa0 08be 5d32 b3bf cd8d a7be 7962 ed3e
000003d0: 99e0 b9be 9e1c 47be e389 8dbd a157 b9be
000003e0: 854d d3be cbe7 0fbf 54de a5bf 9e4d 7a3e
000003f0: a692 8abe f161 7d3c 4a7c 1b3e 4770 863e

bias f4 [8]
-1.478202e-05 0.02627484 -2.019673e-06 1.299453e-07 -1.5077919 -0.7194188 -0.22974934 -2.2192965
00000000: 4b00 78b7 553e d73c b889 07b6 1887 0b34
00000010: 53ff c0bf d52b 38bf 6943 6bbe f408 0ec0

weight f4 [8]
2.2456558 0.69957536 1.5104004 -0.1723697 0.32697356 1.6220689 1.7982994 2.3691404
00000000: d3b8 0f40 5f17 333f cd54 c13f af81 30be
00000010: 1469 a73e f49f cf3f ad2e e63f ff9f 1740

bias f4 [8]
-1.3924793 -1.8877858 -1.5249507 0.04951163 -1.6492743 -0.8886788 0.83118886 -2.205942
00000000: c33c b2bf f7a2 f1bf 9631 c3bf b5cc 4a3d
00000010: 6c1b d3bf 7480 63bf cbc8 543f 272e 0dc0

running_mean f4 [8]
472.1319 13.738872 408.18176 173.5228 -2.2323315 8.876944 364.62067 42.192276
00000000: e210 ec43 6bd2 5b41 4417 cc43 d685 2d43
00000010: 85de 0ec0 f607 0e41 724f b643 e4c4 2842

running_var f4 [8]
20941.398 1681.1982 16162.816 3703.4636 20.811018 994.3797 33751.875 5901.729
00000000: cc9a a346 5826 d244 448b 7c46 6b77 6745
00000010: f77c a641 4d98 7844 e0d7 0347 d56d b845

weight f4 [16, 8, 3, 3]
-0.35380724 -0.88170946 -1.617354 -0.47898754 -0.8701215 -1.668055 -0.3601643 -0.6334209
-1.6047754 -0.2346518 -0.21101786 -0.25524244 -0.43318683 -0.16734084 -0.5137712 -0.46122706
-0.24104969 -0.41226512 -0.34746033 -0.93261695 -1.4478438 0.009894106 -0.56707263 -0.72838914
0.327384 0.14101337 -0.42766777 0.07094673 0.20765904 0.52269214 -0.104241654 0.10085404
0.41477573 -0.098692454 0.06099799 0.39504957 -0.6800616 -0.4885815 -0.16120233 -0.80582446
-0.66384083 -0.2561764 -1.0032122 -0.61387163 -0.18227811 0.3571005 0.28494394 0.3537297
0.15129532 0.21715975 0.20416228 -0.046357922 0.14181724 0.23087873 0.68272275 0.6116155
-0.07038321 0.4984293 0.6523269 0.046904694 0.35019514 0.2588851 0.3166838 -1.8873302
-2.4390867 -1.3246309 -2.3416965 -2.6051514 -1.2272161 -2.8595383 -2.476882 -0.493234
0.047322694 0.8548077 0.11261481 -0.01280039 0.68812066 0.07394582 -0.16918495 0.5023938
-0.00879217 -0.5143225 -0.44420496 -0.26493326 -0.3768751 -0.36644158 -0.21607082 -0.28209195
-0.2812806 -0.16440614 -0.10113689 0.24431974 -0.15026757 -0.15972802 0.090074934 -0.14296328
-0.28747287 -0.09206676 0.00013216256 0.0005391154 -0.018861959 0.008034558 0.009773146 -0.00849435
0.014408965 0.017947266 -0.0007259753 0.016493598 -0.18503916 -0.22880441 -0.2549262 0.043987285
-0.022793716 -0.33438668 0.22795089 -0.089094095 -0.5015609 -0.46141157 -0.109614916 -0.20661294
-0.45670822 -0.097358644 -0.15504836 -0.4723468 -0.1105475 -0.18938406 0.6255012 0.6211209
0.49548125 0.80520916 0.653985 0.68592083 0.8654752 0.55388755 0.37885275 0.71323067
0.49377477 -0.43942276 0.83613515 0.7619034 -0.3112495 0.82898813 1.1544845 -0.14769514
0.7539847 -0.7276462 -0.98317534 0.39420867 -0.047285944 -0.2949385 0.5788843 0.11767509
-0.4032736 0.42903283 0.5550338 0.49169955 0.80491215 0.9453691 0.7615685 0.7746158
0.93864167 0.811807 1.2513032 0.76807064 -0.35922235 1.1411806 0.3058462 -0.25588465
0.41882664 0.39685145 -0.58045214 -0.11829311 -0.31114843 -0.9208853 -0.31590348 -0.29780096
-0.86900795 0.049857125 -0.3298432 -0.2936383 -0.06595367 -0.005388093 -0.8371513 -0.79303795
-0.7267437 -0.010523774 -0.69394815 -0.91255337 -0.9940129 -0.11348169 0.63430536 1.6200244
-0.41126928 0.5731588 1.5069451 -0.3173683 1.0922968 2.5822577 2.5106714 2.071077
1.6849736 2.4177241 2.3721113 1.7271783 2.5331461 2.1930702 2.2119012 -1.9368272
-0.6102565 -0.849265 -1.2466635 -1.0774338 -0.61779726 -0.24709614 0.45722237 -0.46374068
0.69718814 1.1414266 0.6346518 1.2957375 0.09389577 1.3042616 0.21911196 1.2501925
1.7015207 0.44061425 1.0717231 0.9110509 1.1836325 0.46749485 1.1128696 0.88564783
1.1847578 1.2347775 0.9719131 1.27923 -0.37826708 1.3753333 1.5838871 0.94370437
0.8350004 1.3118562 0.51866776 -0.11563043 -0.25075242 -0.61130226 -0.3092711 0.21301441
-0.4234812 -0.35784522 -0.21426259 -0.4066285 0.12870963 -1.1094518 -0.9407234 -0.72442067
00000000: 3926 b5be b6b7 61bf 7505 cfbf db3d f5be
00000010: 48c0 5ebf d482 d5bf 7567 b8be df27 22bf
00000020: 4869 cdbf 9048 70be 1115 58be 23af 82be
00000030: aaca ddbe 665b 2bbe 8286 03bf f425 ecbe
00000040: bbd5 76be 6a14 d3be 52e6 b1be fcbf 6ebf
00000050: f252 b9bf e31a 223c ac2b 11bf b677 3abf
00000060: e09e a73e cf65 103e 45f7 dabe 854c 913d
00000070: 92a4 543e 27cf 053f a67c d5bd 908c ce3d
00000080: 7c5d d43e 451f cabd 07d9 793d f043 ca3e
00000090: 8418 2ebf 5b27 fabe 3912 25be 834a 4ebf
000000a0: 79f1 29bf 8e29 83be 4269 80bf b126 1dbf
000000b0: 1da7 3abe e0d5 b63e 2ce4 913e 0f1c b53e
000000c0: 29ed 1a3e 205f 5e3e eb0f 513e cee1 3dbd
000000d0: 8a38 113e 796b 6c3e ebc6 2e3f d592 1c3f
000000e0: 1325 90bd 2032 ff3e e5fe 263f 231f 403d
000000f0: c74c b33e 968c 843e 6124 a23e 0994 f1bf
00000100: ff19 1cc0 818d a9bf 5bde 15c0 cdba 26c0
00000110: 6b15 9dbf ad02 37c0 3c85 1ec0 2b89 fcbe
00000120: 71d5 413d add4 5a3f 98a2 e63d bab8 51bc
00000130: ad28 303f e870 973d d23e 2dbe e19c 003f
00000140: 090d 10bc a4aa 03bf d56e e3be 55a5 87be
00000150: c6f5 c0be 3b9e bbbe ab41 5dbe 5b6e 90be
00000160: 0304 90be 155a 28be dc20 cfbd f42e 7a3e
00000170: bedf 19be be8f 23be 3579 b83d f764 12be
00000180: a52f 93be 7f8d bcbd 1e95 0a39 6c53 0d3a
00000190: 6584 9abc 61a3 033c 8c1f 203c e32b 0bbc
000001a0: 9413 6c3c 2506 933c 614f 3eba 951d 873c
000001b0: e87a 3dbe b44b 6abe b085 82be 032c 343d
000001c0: e3b9 babc bb34 abbe f56b 693e f776 b6bd
000001d0: 4c66 00bf 233e ecbe c97d e0bd 5892 53be
000001e0: a9d5 e9be f863 c7bd ffc4 1ebe 71d7 f1be
000001f0: ba66 e2bd e5ed 41be d920 203f c801 1f3f
00000200: b8af fd3e 3022 4e3f 906b 273f 8298 2f3f
00000210: c88f 5d3f 93cb 0d3f fdf8 c13e 4996 363f
00000220: 0cd0 fc3e 05fc e0be f40c 563f 1a0c 433f
00000230: 185c 9fbe 9138 543f 26c6 933f 653d 17be
00000240: 2405 413f 0547 3abf 61b1 7bbf b8d5 c93e
00000250: e8ae 41bd 2e02 97be c331 143f a3ff f03d
00000260: e179 cebe 31aa db3e b216 0e3f 0bc0 fb3e
00000270: b90e 4e3f b603 723f 27f6 423f 394d 463f
00000280: d24a 703f 95d2 4f3f b42a a03f 47a0 443f
00000290: feeb b7be 3512 923f e097 9c3e 5003 83be
000002a0: 7270 d63e 1d30 cb3e 8398 14bf a843 f2bd
000002b0: d94e 9fbe 24bf 6bbf 1abe a1be 5e79 98be
000002c0: 4e77 5ebf fc36 4c3d 35e1 a8be c257 96be
000002d0: b812 87bd 9a8e b0bb 8c4f 56bf 8904 4bbf
000002e0: e00b 3abf e86b 2cbc 96a6 31bf 199d 69bf
000002f0: a177 7ebf 1769 e8bd d661 223f f65c cf3f
00000300: e391 d2be 89ba 123f 94e3 c03f 197e a2be
00000310: 62d0 8b3f b643 2540 d7ae 2040 878c 0440
00000320: 37ad d73f febb 1a40 acd0 1740 2e14 dd3f
00000330: 111f 2240 435b 0c40 ca8f 0d40 f4e9 f7bf
00000340: c539 1cbf 6e69 59bf ab92 9fbf 5ae9 89bf
00000350: f627 1ebf c506 7dbe 0d19 ea3e 6b6f edbe
00000360: ec7a 323f 441a 923f 8a78 223f bada a53f
00000370: 6d4c c03d 0bf2 a63f e35e 603e 4f06 a03f
00000380: 6ecb d93f 3198 e13e 392e 893f a23a 693f
00000390: 4581 973f 7c5b ef3e 8372 8e3f d1b9 623f
000003a0: 25a6 973f 300d 9e3f 4ccf 783f cfbd a33f
000003b0: 39ac c1be ec0a b03f d0bc ca3f 9c96 713f
000003c0: 96c2 553f e7ea a73f 69c7 043f a6cf ecbd
000003d0: 9f62 80be 4e7e 1cbf c858 9ebe 7320 5a3e
000003e0: 87d2 d8be 7d37 b7be a767 5bbe 9c31 d0be
000003f0: 75cc 033e 8402 8ebf 40d3 70bf a273 39bf

bias f4 [16]
0.52897966 0.0904013 0.1316673 -0.6102 -1.2154243 -0.47029266 -0.1916277 0.46444437
-0.29864526 0.050617382 -1.2174455 -2.1192522 -0.062235534 -0.32223743 0.0114636235 -1.6004554
00000000: 366b 073f 5124 b93d cbd3 063e 1136 1cbf
00000010: 0693 9bbf 33ca f0be 0d3a 44be a7cb ed3e
00000020: 08e8 98be 2c54 4f3d 41d5 9bbf d4a1 07c0
00000030: b0ea 7ebd 4efc a4be ecd1 3b3c b9db ccbf

weight f4 [16]
-1.5960342 0.12333515 1.826851 1.8946465 0.9966876 0.4827272 0.4634237 -1.1729174
1.7879335 0.103712656 1.7112999 1.6955409 1.3941977 1.4373715 0.84050983 1.663381
00000000: d94a ccbf 2497 fc3d 41d6 e93f c783 f23f
00000010: eb26 7f3f 0528 f73e df45 ed3e 2822 96bf
00000020: 01db e43f 4d67 d43d e00b db3f 7c07 d93f
00000030: 1275 b23f cafb b73f a72b 573f abe9 d43f

bias f4 [16]
1.3062962 1.377499 -0.10492242 -0.49828744 -0.03675833 -0.17962201 1.1483966 -0.42816725
0.55255157 0.9071953 0.51318085 -2.3629005 0.53180087 0.75108016 -0.7930015 -1.5345229
00000000: b734 a73f e351 b03f 91e1 d6bd 881f ffbe
00000010: e78f 16bd d5ee 37be a9fe 923f bd38 dbbe
00000020: 0574 0d3f f43d 683f d25f 033f c339 17c0
00000030: 1a24 083f ca46 403f 2502 4bbf 3f6b c4bf

running_mean f4 [16]
64.22847 10.073757 24.429333 1.7729437 3.8630161 7.080307 8.79672 45.84191
22.550348 7.7327037 9.4135275 -0.6907402 21.764275 31.222652 4.6287913 -0.6300625
00000000: fa74 8042 1c2e 2141 466f c341 d2ef e23f
00000010: a83b 7740 e091 e240 5dbf 0c41 1e5e 3742
00000020: 1d67 b441 4f72 f740 cf9d 1641 5ad4 30bf
00000030: 3c1d ae41 fec7 f941 0f1f 9440 c74b 21bf

running_var f4 [16]
1422.3046 118.33104 514.6997 64.95352 97.172455 136.7637 149.8748 693.134
453.3658 42.94293 314.29843 4.957534 638.6818 763.1947 136.2605 6.3541503
00000000: bfc9 b144 7ea9 ec42 c8ac 0044 34e8 8142
00000010: 4c58 c242 82c3 0843 f3df 1543 9348 2d44
00000020: d3ae e243 8fc5 2b42 3326 9d43 1ea4 9e40
00000030: a3ab 1f44 76cc 3e44 b042 0843 3355 cb40

weight f4 [16, 16, 3, 3]
-1.0106245 -0.8464936 -0.94965786 -0.6929212 -1.1628181 -0.3162257 -1.042733 -1.2318144
-0.2858213 -0.40268365 -0.5750628 -0.58733314 -0.80947345 -1.0319602 -0.9704774 -0.7819659
-0.9574953 -0.702122 0.12750767 0.95729095 0.9986202 0.42316306 1.0698055 0.6588036
0.16213787 -0.1421791 -0.37948212 2.2255528 0.10278667 1.3101993 0.63442355 -0.43534702
1.1594174 -0.082293406 -0.6843529 -0.70235974 0.7909878 -0.06810461 0.43300846 0.34887385
-0.36314282 0.11791528 0.20917039 0.68800575 0.5779744 0.4588746 0.16801795 0.45021835
-0.06785767 -0.25972876 -0.046646792 -0.017577596 -0.42502323 0.13062015 -0.6541032 -0.95582235
-1.0880215 -0.6752282 -1.1337605 -1.0291997 -0.7168167 -1.048335 -1.0806108 -0.042199794
-1.3743436 -0.968443 0.69337744 -1.2792976 -1.0268186 0.5944737 -1.2286688 -0.2289219
-0.023163006 0.15523715 0.7764815 -0.75685954 0.13973618 1.0029479 -0.069550104 0.3069973
0.61727756 -0.32327142 -0.50575036 -0.2682384 -0.65642995 -1.0473871 -0.99596286 -0.6518068
-0.81351537 -0.64003366 -0.15185153 0.6849118 -0.61259544 -0.5002927 0.23742078 -1.0914588
-0.6758937 -0.36913767 -1.5779479 1.7643893 2.1904233 -0.10481082 2.0314052 1.6361995
2.714374 1.9406079 0.66241634 1.8689579 -2.861729 -0.45764711 -0.20057166 -0.5813744
0.27639773 -0.13354652 -0.116060354 -0.08624035 0.6323242 -1.5667118 0.21344285 0.19538419
-0.038274802 -0.7515576 -1.0723854 0.13328181 -0.951394 -0.72411114 -0.9819948 -1.2004428
1.0742085 0.12987752 -0.15268327 0.3354767 0.68505526 1.0808507 1.315029 1.0824287
-0.67790043 1.2630278 2.342709 1.1515176 1.9970611 1.164951 0.80547065 1.9248383
-0.3663 -0.65982586 -0.8232819 1.1982256 0.54156375 0.3324683 1.6927229 0.44667545
0.58623195 0.83110607 -0.12508552 -0.089025915 1.0180258 -0.03736483 -0.06034538 0.9785143
-0.058235705 -0.15438338 2.4507756 2.488577 1.2525272 2.26213 2.2859492 0.21600744
1.077518 0.511843 0.17269441 -1.3638895 -0.2045604 -0.2710497 -1.1373415 -0.025597876
0.49740225 -0.49033496 -0.13176034 1.5017474 0.32353342 -0.029851371 1.4221021 0.4086801
-1.136244 0.3735893 0.7904021 -0.84137136 0.08622033 0.20606938 0.41720453 0.16744979
0.29564038 -0.1669289 0.23833454 0.3580034 -0.6198987 0.017211504 1.29539 1.1764327
-0.06455761 1.3073416 1.097787 -0.22102626 1.1041048 0.61543995 0.17169695 0.30885482
-0.33890435 0.3528331 1.1461185 -0.10562052 0.08054166 1.7828099 0.45277563 0.95022154
-1.2395763 -1.9397606 -2.334426 -0.657951 -1.3136706 -0.97870976 -0.62212336 -0.9287903
-0.5414761 0.5756685 -0.16011518 0.20397589 0.80030507 0.18313044 0.00018687382 1.0124887
0.28497759 0.32097155 0.3171509 -0.021335285 -0.54819995 0.094207965 0.29557937 0.18200818
0.31015128 0.34467643 -0.014827767 0.37289557 0.7509424 0.3905924 -0.86414546 0.005148579
0.5273486 0.17374772 0.7904057 0.20113851 0.2164503 1.2435509 -0.5002495 -0.15284751
00000000: 255c 81bf ceb3 58bf c71c 73bf 4963 31bf
00000010: 39d7 94bf 56e8 a1be 4678 85bf 18ac 9dbf
00000020: 2b57 92be 8d2c cebe 5137 13bf 775b 16bf
00000030: a739 4fbf 4617 84bf 3571 78bf eb2e 48bf
00000040: 691e 75bf 44be 33bf 5f91 023e 0511 753f
00000050: 93a5 7f3f d4a8 d83e 63ef 883f 5aa7 283f
00000060: 7807 263e 6697 11be 7b4b c2be 756f 0e40
00000070: d181 d23d 9cb4 a73f 9569 223f cee5 debe
00000080: ca67 943f 7289 a8bd c031 2fbf d9cd 33bf
00000090: 2d7e 4a3f 6e7a 8bbd 49b3 dd3e 989f b23e
000000a0: dbed b9be 917d f13d c330 563e 2521 303f
000000b0: 21f6 133f 9df1 ea3e e60c 2c3e 0583 e63e
000000c0: f6f8 8abd 2bfb 84be b510 3fbd e4fe 8fbc
000000d0: a59c d9be 4ac1 053e 4f73 27bf c6b0 74bf
000000e0: 4a44 8bbf c1db 2cbf 101f 91bf d1bc 83bf
000000f0: 4d81 37bf d72f 86bf 7451 8abf b1d9 2cbd
00000100: 7eea afbf e1eb 77bf 2f81 313f 06c0 a3bf
00000110: cb6e 83bf 6e2f 183f 0545 9dbf 816a 6abe
00000120: 58c0 bdbc 7df6 1e3e 7ec7 463f 8cc1 41bf
00000130: 0017 0f3e 9960 803f 4970 8ebd c02e 9d3e
00000140: e705 1e3f d583 a5be db78 01bf 8b56 89be
00000150: cb0b 28bf c810 86bf 6cf7 7ebf cfdc 26bf
00000160: 8b42 50bf 3fd9 23bf f87e 1bbe 6156 2f3f
00000170: 0ed3 1cbf 2f13 00bf 6f1e 733e ecb4 8bbf
00000180: 5f07 2dbf 9dff bcbe 32fa c9bf 82d7 e13f
00000190: e52f 0c40 0ea7 d6bd 8b02 0240 fc6e d13f
000001a0: 4eb8 2d40 d765 f83f 1e94 293f 033a ef3f
000001b0: 9126 37c0 b950 eabe a862 4dbe f4d4 14bf
000001c0: 0184 8d3e 6bc0 08be 0db1 edbd c89e b0bd
000001d0: 00e0 213f 038a c8bf c390 5a3e cb12 483e
000001e0: 0ac6 1cbd 1466 40bf ed43 89bf 077b 083e
000001f0: 8f8e 73bf 595f 39bf 0364 7bbf 1ca8 99bf
00000200: aa7f 893f 9dfe 043e 0159 1cbe 9ac3 ab3e
00000210: c85f 2f3f 5159 8a3f df52 a83f 068d 8a3f
00000220: e28a 2dbf e5aa a13f f2ee 1540 ee64 933f
00000230: b39f ff3f 1d1d 953f 5333 4e3f 1a61 f63f
00000240: ac8b bbbe 59ea 28bf 9ac2 52bf 755f 993f
00000250: eca3 0a3f 4939 aa3e 25ab d83f a5b2 e43e
00000260: 4c13 163f 5ec3 543f 6b16 00be 3853 b6bd
00000270: ab4e 823f dd0b 19bd b82c 77bd ea7f 7a3f
00000280: 9088 6ebd ad16 1ebe 82d9 1c40 d844 1f40
00000290: d052 a03f bdc6 1040 fe4c 1240 0e31 5d3e
000002a0: 1cec 893f 2508 033f ced6 303e ee93 aebf
000002b0: 4878 51be 07c7 8abe 6894 91bf a3b2 d1bc
000002c0: 82ab fe3e 2f0d fbbe 2fec 06be 4239 c03f
000002d0: 2ca6 a53e dd8a f4bc 7107 b63f 853e d13e
000002e0: 7270 91bf 1947 bf3e cb57 4a3f 1d64 57bf
000002f0: 4994 b03d da03 533e d59b d53e f577 2b3e
00000300: 2d5e 973e 69ef 2abe f80d 743e 394c b73e
00000310: aeb1 1ebf 24ff 8c3c 57cf a53f 5995 963f
00000320: c836 84bd f856 a73f 4984 8c3f b554 62be
00000330: 4e53 8d3f 798d 1d3f 53d1 2f3e 3822 9e3e
00000340: df84 adbe 8aa6 b43e 03b4 923f 924f d8bd
00000350: 07f3 a43d 1d33 e43f 35d2 e73e b841 733f
00000360: 70aa 9ebf 134a f8bf 3c67 15c0 7a6f 28bf
00000370: 5c26 a8bf b98c 7abf 7a43 1fbf 33c5 6dbf
00000380: 2d9e 0abf 035f 133f 3cf5 23be 0edf 503e
00000390: cbe0 4c3f 8c86 3b3e 8ff3 4339 3b99 813f
000003a0: 95e8 913e 6256 a43e 9a61 a23e 56c7 aebc
000003b0: d556 0cbf 1bf0 c03d 2e56 973e 5a60 3a3e
000003c0: 26cc 9e3e 6e79 b03e 2af0 72bc 2bec be3e
000003d0: c33d 403f bafb c73e a338 5dbf 69b5 a83b
000003e0: 5100 073f ecea 313e 0758 4a3f 41f7 4d3e
000003f0: 26a5 5d3e ad2c 9f3f 5a10 00bf 0f84 1cbe

bias f4 [16]
-1.4635212 0.2957379 -0.7984002 -1.0237653 0.124778 0.05837916 -0.10705123 -0.84668964
0.32191926 -0.09263478 -0.07635525 -0.20302568 -0.03678489 -2.0547059 -0.14775206 0.14367686
00000000: aa54 bbbf f56a 973e f563 4cbf be0a 83bf
00000010: 9c8b ff3d fc1e 6f3d ad3d dbbd a7c0 58bf
00000020: 9ad2 a43e 4eb7 bdbd 2460 9cbd f7e5 4fbe
00000030: c1ab 16bd 4d80 03c0 514c 17be 0720 133e

weight f4 [16]
2.048897 2.1127374 -1.3799722 2.2743769 1.7311497 0.8625891 2.077685 1.7690387
1.5304285 0.5349667 1.7443109 1.1896179 1.3849443 1.2282534 1.8989418 2.2273092
00000000: 2121 0340 1737 0740 eea2 b0bf 648f 1140
00000010: 5096 dd3f a4d2 5c3f cbf8 0440 dc6f e23f
00000020: 15e5 c33f 94f3 083f 9445 df3f 6645 983f
00000030: db45 b13f 6837 9d3f 8610 f33f 3c8c 0e40

bias f4 [16]
0.17143443 -0.5227157 0.6914048 0.28694382 -1.7902133 0.25484502 -0.17540544 0.0367723
1.2366947 0.06458295 1.1351553 0.12720202 -0.3797232 0.23818208 -0.40166456 0.40299296
00000000: 828c 2f3e b2d0 05bf e8ff 303f 4dea 923e
00000010: b625 e5bf 0c7b 823e 7c9d 33be 8d9e 163d
00000020: 034c 9e3f 1144 843d c54c 913f 3f41 023e
00000030: 146b c2be 01e6 733e faa6 cdbe 1855 ce3e

running_mean f4 [16]
0.57496357 20.62957 -0.15254681 6.38199 8.75146 16.38424 10.710788 13.45968
52.87263 0.08598298 6.685137 6.7033577 6.65084 -0.60797817 12.541919 6.544105
00000000: d030 133f 5c09 a541 3b35 1cbe 4339 cc40
00000010: fb05 0c41 ec12 8341 635f 2b41 d95a 5741
00000020: 937d 5342 d817 b03d a4ec d540 e881 d640
00000030: aed3 d440 75a4 1bbf b3ab 4841 4f69 d140

running_var f4 [16]
236.84416 576.5983 24.093742 245.54153 243.66856 151.44104 368.76456 453.8997
467.33228 0.28734216 160.25888 61.41253 131.02571 49.57824 471.94186 466.7607
00000000: 1bd8 6c43 4b26 1044 fcbf c041 a28a 7543
00000010: 27ab 7343 e870 1743 dd61 b843 29f3 e243
00000020: 88aa e943 831e 933e 4642 2043 6ea6 7542
00000030: 9506 0343 1e50 4642 8ff8 eb43 5f61 e943

weight f4 [8, 16, 3, 3]
-0.47965303 2.0997083 0.80449104 0.09544618 0.8259179 0.2792243 -0.53214264 -0.59225625
0.10476101 0.19036435 0.4012873 0.31283692 0.25732943 0.4118898 0.18141457 1.2239825
1.5961759 0.8429127 -1.3237952 -1.2792608 -0.84040993 0.061002113 -0.96110475 -0.8032548
-0.8176629 -2.4588706 -2.145916 0.31725916 -0.11818422 -0.14613025 -0.22753006 -0.9721559
-0.045933325 0.14786024 0.24216375 0.11032947 0.2587957 0.44945413 1.5658991 0.67756903
1.3403531 1.5337174 0.88303024 2.5104985 2.023974 0.08992669 -0.7743627 -0.3462753
0.09263912 -0.35715073 0.92673784 -0.09675236 0.2608804 -0.2304928 -0.45579407 -0.1386492
0.18684699 1.2467488 1.39091 0.17011054 1.7512712 1.5164533 0.7661704 -0.6307889
-0.5501634 -0.895562 0.48473236 -0.41533315 -0.8926488 0.47800747 -0.75201106 -0.29407173
-0.2055594 -1.0059701 -1.157905 -0.51836973 -0.70765835 -1.5081997 0.23545934 0.44675508
0.34883067 -0.056912612 0.04218231 0.21814127 0.07811465 0.32598746 -0.1150129 0.0065312693
0.1255751 0.02159218 0.16779153 0.17396164 0.4766872 0.14073205 -0.39837343 -0.5762215
-0.7163459 -0.26088905 -0.8317421 -0.21707724 1.2137121 0.38968527 -1.3926837 -0.47947657
-1.0934561 0.2739662 -0.4539732 0.5862127 0.3467757 0.21335022 -0.11758178 0.6219232
1.2155467 -0.43921834 -0.13626239 0.17014 0.03677654 0.8049084 2.2466395 -0.8775111
0.02626941 -0.29155284 -0.5573803 -0.1260547 -0.04536716 -0.3211418 -1.4045447 0.83476627
-0.5146725 -0.6844544 0.0680125 0.21962568 -0.21913898 0.37124696 0.43674356 0.81288457
1.4644407 0.65395886 -1.0978045 1.370274 -0.38066497 -1.579548 -1.0416613 0.7396285
-0.6352643 -1.3472246 -0.8559649 -0.23251405 0.097478025 0.3011192 0.26706463 0.20813785
-0.12560286 1.1904404 -0.45604602 -0.779518 0.9279048 -1.7478933 -0.64442086 0.82846624
-1.522999 0.6357762 -0.9203592 -2.2730696 -1.419401 0.09797315 -0.12399933 0.6737894
-1.2854797 -0.9007992 -0.5645122 0.4629998 0.98194426 0.35690066 0.3507587 1.033602
-0.37112287 0.73298997 1.5203677 -0.33213964 1.0145115 0.75930387 0.6012974 0.17214833
-0.5598623 -0.6639341 -0.10971846 -0.9501516 -0.40063012 -0.22439198 0.26590154 -0.6142698
1.0219849 0.59335077 1.3393934 -0.8903516 0.46988633 0.92193764 -0.5818946 1.9278055
-1.8626205 -0.80299145 -0.41588712 1.3277377 -0.11838827 -0.27798536 1.1126854 0.31585976
0.9698422 -0.49195072 -1.8414106 0.17203444 -0.52104336 -0.2564738 -0.8697319 -1.0925052
-2.246537 -0.81367654 -0.41485614 0.347366 1.5866675 1.509519 -0.94809026 2.1414733
0.3611236 0.084423244 0.32165113 -0.5416213 0.18116634 0.4135109 0.11362712 -0.05956271
-0.17231013 0.11315905 -0.47506908 0.66345954 -1.3482013 -0.5517801 2.087416 0.5683727
0.9893066 1.5890416 -0.41823417 -0.60293365 -0.33991903 -0.06831882 -0.29301643 0.20421022
0.5184052 -0.3062124 -0.7856328 0.39741772 0.38036755 0.36636972 0.42274192 0.6448493
00000000: 1595 f5be 9f61 0640 20f3 4d3f 4979 c33d
00000010: 5b6f 533f 7df6 8e3e 803a 08bf 1b9e 17bf
00000020: f18c d63d dfee 423e 8775 cd3e 292c a03e
00000030: afc0 833e 38e3 d23e bec4 393e 75ab 9c3f
00000040: 7e4f cc3f 20c9 573f 1f72 a9bf d1be a3bf
00000050: 1b25 57bf 5add 793d f60a 76bf 1ba2 4dbf
00000060: 5b52 51bf 235e 1dc0 b056 09c0 cb6f a23e
00000070: 910a f2bd 2ba3 15be a4fd 68be 36df 78bf
00000080: 9524 3cbd ad68 173e c6f9 773e 6bf4 e13d
00000090: df80 843e da1e e63e 626f c83f 2a75 2d3f
000000a0: b190 ab3f da50 c43f 450e 623f 02ac 2040
000000b0: ca88 0140 7c2b b83d a23c 46bf ff4a b1be
000000c0: 94b9 bd3d 76dc b6be b13e 6d3f 1a26 c6bd
000000d0: 1e92 853e 4e06 6cbe d75d e9be 0efa 0dbe
000000e0: d154 3f3e 7795 9f3f 5709 b23f 7531 2e3e
000000f0: a829 e03f 241b c23f be23 443f 627b 21bf
00000100: 82d7 0cbf 8d43 65bf d72e f83e 8ca6 d4be
00000110: a284 64bf 65bd f43e cc83 40bf 9290 96be
00000120: 2a7e 52be a1c3 80bf 3b36 94bf e1b3 04bf
00000130: 1929 35bf b00c c1bf 411c 713e 15bd e43e
00000140: ef99 b23e 331d 69bd 5cc7 2c3d 6d60 5f3e
00000150: 93fa 9f3d d4e7 a63e e28b ebbd 4204 d63b
00000160: c296 003e 15e2 b03c 8bd1 2b3e 0023 323e
00000170: 5810 f43e 101c 103e 9af7 cbbe 4183 13bf
00000180: 7262 37bf 4093 85be 0ded 54bf 7f49 5ebe
00000190: eb5a 9b3f d484 c73e 7643 b2bf f47d f5be
000001a0: 5ff6 8bbf 4c45 8c3e 2d6f e8be 0912 163f
000001b0: 968c b13e 7b78 5a3e b7ce f0bd 5c36 1f3f
000001c0: 0997 9b3f 3ae1 e0be 5e88 0bbe 2e39 2e3e
000001d0: ffa2 163d 7a0e 4e3f f1c8 0f40 91a4 60bf
000001e0: f232 d73c 6a46 95be 7ab0 0ebf 7c14 01be
000001f0: ead2 39bd b36c a4be 1fc8 b3bf 3eb3 553f
00000200: 94c1 03bf 6738 2fbf 234a 8b3d 8ee5 603e
00000210: f865 60be 1514 be3e da9c df3e 3419 503f
00000220: cb72 bb3f d969 273f dc84 8cbf 2365 af3f
00000230: 85e6 c2be a12e cabf 2855 85bf 4b58 3d3f
00000240: aea0 22bf db71 acbf 8420 5bbf 2a18 6ebe
00000250: 8fa2 c73d 4c2c 9a3e b2bc 883e 1722 553e
00000260: 099e 00be 5a60 983f dd7e e9be 7e8e 47bf
00000270: 2b8b 6d3f f8ba dfbf c4f8 24bf 5d16 543f
00000280: a2f1 c2bf 3bc2 223f a99c 6bbf f979 11c0
00000290: efae b5bf 26a6 c83d 5cf3 fdbd 767d 2c3f
000002a0: 998a a4bf c79a 66bf df83 10bf 4f0e ed3e
000002b0: b360 7b3f afbb b63e a596 b33e 124d 843f
000002c0: d103 bebe 3ba5 3b3f 699b c23f 350e aabe
000002d0: 83db 813f bd61 423f a0ee 193f a747 303e
000002e0: 2353 0fbf 96f7 29bf 12b4 e0bd 233d 73bf
000002f0: 641f cdbe 03c7 65be 3f24 883e c940 1dbf
00000300: 67d0 823f d6e5 173f 3e71 ab3f 15ee 63bf
00000310: f194 f03e 1b04 6c3f 0bf7 14bf 55c2 f63f
00000320: 596a eebf d990 4dbf 28ef d4be 4ff3 a93f
00000330: 8d75 f2bd 1954 8ebe 7a6c 8e3f 5fb8 a13e
00000340: 9447 783f f7e0 fbbe 58b3 ebbf cc29 303e
00000350: 1963 05bf 8950 83be c0a6 5ebf 36d7 8bbf
00000360: 43c7 0fc0 1b4d 50bf 0668 d4be f5d9 b13e
00000370: ec17 cb3f eb37 c13f 0bb6 72bf e60d 0940
00000380: 31e5 b83e 18e6 ac3d 75af a43e b2a7 0abf
00000390: ab83 393e b3b7 d33e 56b5 e83d 07f8 73bd
000003a0: 1172 30be efbf e73d 413c f3be 7cd8 293f
000003b0: dc91 acbf 7641 0dbf 3998 0540 e080 113f
000003c0: 3343 7d3f b765 cb3f ca22 d6be dc59 1abf
000003d0: de09 aebe bdea 8bbd 4006 96be 7c1c 513e
000003e0: 34b6 043f dfc7 9cbe 3b1f 49bf 567a cb3e
000003f0: 89bf c23e d094 bb3e a171 d83e d814 253f

bias f4 [8]
-0.6496519 0.62287974 0.16010551 0.8906358 0.08159291 0.3533268 1.0000541 1.3758622
00000000: 964f 26bf 0c75 1f3f b3f2 233e b500 643f
00000010: 2f1a a73d 40e7 b43e c601 803f 411c b03f

weight f4 [8]
0.31495672 0.97246623 0.7011062 1.792781 1.6373761 1.2749971 1.2055725 2.4826772
00000000: 0242 a13e 8cf3 783f b27b 333f d979 e53f
00000010: 8a95 d13f 1b33 a33f 3350 9a3f 2fe4 1e40

bias f4 [8]
-0.2812605 0.6770329 0.36000785 0.35537368 -1.1046529 0.03712785 0.67507535 -1.4644179
00000000: 6001 90be 0752 2d3f f352 b83e 8af3 b53e
00000010: 4465 8dbf 5f13 183d bdd1 2c3f 0c72 bbbf

running_mean f4 [8]
3.5369494 24.396921 9.488386 20.890398 10.765913 23.739975 35.845108 31.055393
00000000: 615d 6240 e52c c341 6ed0 1741 891f a741
00000010: 2e41 2c41 78eb bd41 6461 0f42 7271 f841

running_var f4 [8]
234.81964 890.31213 220.92784 672.83966 222.97629 786.7024 840.8871 871.25574
00000000: d4d1 6a43 fa93 5e44 87ed 5c43 bd35 2844
00000010: eef9 5e43 f4ac 4444 c638 5244 5ed0 5944

weight f4 [3, 8, 3, 3]
-3.53063e-40 6.87358e-40 -1.9435e-41 4.5431e-41 -0.8636815 0.7322912 7.2057e-40 -0.51376575
-1.2228936 -5.883e-42 7.24338e-40 -5.42256e-40 -5.525e-41 2.6652157 -0.20264724 7.38965e-40
0.8122549 -1.2818924 -5.76702e-40 7.4361e-40 -5.92242e-40 2.15772e-40 -1.9743961 0.20486526
-5.9167e-41 -0.14433223 1.7670622 1.1439e-40 5.48572e-40 -5.41424e-40 -1.05313e-40 -1.6720748
-0.080943055 -1.23812e-40 -2.5242484 2.712352 1.73594e-40 -5.30554e-40 6.3199e-40 -1.85752e-40
-0.4183851 -3.284259 2.93428e-40 -0.583592 -1.6627684 -6.2768e-41 1.59482e-40 4.6896e-41
5.62347e-40 -1.3928667 1.4918137 7.11598e-40 -0.7089374 -0.22265051 -7.19478e-40 3.45406e-40
-5.34906e-40 -5.91782e-40 0.6199847 0.4185264 7.19813e-40 0.41718045 0.18884918 -5.30618e-40
-1.76167e-40 -7.2574e-40 3.52128e-40 -0.2801958 -2.8652077 -1.09014e-40 -0.3124769 -1.9746902
-5.82238e-40 -5.6676e-41 1.58714e-40 -3.9409e-40 0.84772885 -1.46214 4.86639e-40 -0.010160456
0.018141182 -4.27994e-40 1.11584e-40 -5.70358e-40 -1.0672e-40 -0.78296626 2.47684 6.81969e-40
1.0227519 -0.22658531 1.64253e-40 2.7504e-40 5.84602e-40 -5.82789e-40 0.29537898 0.15845142
-5.96083e-40 -0.742681 1.7442527 -3.651e-41 6.97611e-40 -5.13332e-40 5.1718e-41 -1.4994751
0.82356155 -5.92026e-40 -0.20827709 1.9218148 -4.64474e-40 -6.89394e-40 1.64727e-40 -6.75216e-40
-0.9070599 -0.5425678 -1.2347e-41 0.07408222 1.0341569 -8.792e-42 -3.8325e-40 3.83528e-40
7.1145e-41 -0.48005593 0.2654113 -3.22419e-40 -1.6501199 -1.5040139 -7.25385e-40 5.38044e-40
5.98015e-40 7.425e-40 -2.0308967 -1.513534 -6.89692e-40 -0.7161849 -0.029292334 -1.67017e-40
-5.18074e-40 5.7271e-41 6.91013e-40 1.2710289 1.9316285 -6.1134e-41 0.46449754 -1.5237467
-2.93278e-40 -6.11252e-40 5.87207e-40 1.16696e-40 0.9214938 -1.4575249 -2.13163e-40 0.20846896
-0.2478541 1.63648e-40 -5.63347e-40 -7.27644e-40 -1.7028e-40 -1.1796508 0.21769382 -6.8114e-41
1.0245044 3.0051184 7.34779e-40 -1.2874e-41 6.89125e-40 1.64269e-40 0.09934522 -1.3601292
-5.41352e-40 -0.276146 -0.06626831 -6.69654e-40 -3.90937e-40 5.2612e-41 2.25245e-40 -0.49750593
1.5554926 1.65827e-40 1.0286651 -0.041107956 -2.2092e-40 7.32665e-40 2.13607e-40 2.67012e-40
-0.19931969 -1.601719 4.55786e-40 -0.9337105 -1.3892913 -1.65545e-40 5.21154e-40 7.27628e-40
-7.46147e-40 0.031071443 -0.00827927 6.56824e-40 -1.2268797 1.4687685 6.84519e-40 4.59975e-40
-6.73405e-40 -2.79652e-40 -1.9269091 -1.3991877 2.24233e-40 0.23099431 2.3306043 6.42201e-40
-5.93632e-40 7.253e-42 3.05936e-40 -1.0698743 0.6533691 6.78804e-40 -0.7548049 -3.8567524
00000000: 32d8 0380 137c 0700 2d36 0080 a57e 0000
00000010: 3b1a 5dbf 7077 3b3f a8d8 0700 2786 03bf
00000020: c787 9cbf 6610 0080 29e3 0700 97e7 0580
00000030: 049a 0080 e592 2a40 c282 4fbe ef0b 0800
00000040: f0ef 4f3f 0d15 a4bf 9c47 0680 e218 0800
00000050: ee72 0680 7c59 0200 03b9 fcbf 33c8 513e
00000060: efa4 0080 d4cb 13be 182f e23f df3e 0100
00000070: 32f9 0500 45e5 0580 9225 0180 8c06 d6bf
00000080: 79c5 a5bd 2359 0180 498d 21c0 2d97 2d40
00000090: e9e3 0100 f8c6 0580 bbe1 0600 cd05 0280
000000a0: 9236 d6be 4d31 52c0 f531 0300 4966 15bf
000000b0: 98d5 d4bf f9ae 0080 92bc 0100 ba82 0000
000000c0: 981f 0600 7549 b2bf c0f3 be3f a5bf 0700
000000d0: ec7c 35bf 7ffe 63be 9dd5 0780 dac2 0300
000000e0: 1ad3 0580 a671 0680 51b7 1e3f 1849 d63e
000000f0: 8cd6 0700 ad98 d53e ae61 413e 26c7 0580
00000100: 15eb 0180 11e7 0780 97d5 0300 d375 8fbe
00000110: 905f 37c0 e32f 0180 f9fc 9fbe a6c2 fcbf
00000120: 0b57 0680 fd9d 0080 6eba 0100 904a 0480
00000130: c204 593f 6727 bbbf 8d4c 0500 0b78 26bc
00000140: d19c 943c 13a9 0480 0d37 0100 ed35 0680
00000150: 7e29 0180 7a70 48bf 8c84 1e40 0d6d 0700
00000160: 89e9 823f fb05 68be dfc9 0100 b3fe 0200
00000170: a25d 0600 9458 0680 ea3b 973e 1741 223e
00000180: a37d 0680 5820 3ebf ac43 df3f c665 0080
00000190: a898 0700 f696 0580 2b90 0000 cdee bfbf
000001a0: eed4 523f 5472 0680 9746 55be 07fe f53f
000001b0: c40e 0580 c081 0780 31cb 0100 3a5a 0780
000001c0: 1435 68bf b9e5 0abf 6b22 0080 6bb8 973d
000001d0: 415f 843f 8218 0080 582c 0480 1f2d 0400
000001e0: 53c6 0000 e4c9 f5be fde3 873e c682 0380
000001f0: 2137 d3bf 8783 c0bf 14e6 0780 d9db 0500
00000200: 0683 0600 ca15 0800 36fa 01c0 7bbb c1bf
00000210: 9582 0780 e557 37bf 7af6 efbc 93d1 0180
00000220: 2ea4 0580 a69f 0000 4386 0700 13b1 a23f
00000230: 9a3f f73f 6baa 0080 9fd2 ed3e 220a c3bf
00000240: 8a31 0380 eca7 0680 e564 0600 4d45 0100
00000250: 05e7 6b3f 2d90 babf 3652 0280 e378 553e
00000260: 77cd 7dbe 2fc8 0100 6222 0680 60ec 0780
00000270: acda 0180 ccfe 96bf 21eb 5e3e e0bd 0080
00000280: f622 833f dc53 4040 4400 0800 e323 0080
00000290: 0081 0700 eac9 0100 8275 cb3d b718 aebf
000002a0: 12e5 0580 0263 8dbe aeb7 87bd b94a 0780
000002b0: c641 0480 a992 0000 e473 0200 19b9 febe
000002c0: 621a c73f 42ce 0100 4cab 833f d160 28bd
000002d0: d667 0280 5ffa 0700 7353 0200 52e8 0200
000002e0: 761a 4cbe 2105 cdbf 8cf6 0400 a707 6fbf
000002f0: 4cd4 b1bf 79cd 0180 c4ac 0500 55ec 0700
00000300: f41f 0880 8a89 fe3c c6a5 07bc f526 0700
00000310: 650a 9dbf 9b00 bc3f 2974 0700 3902 0500
00000320: 2e55 0780 8e0b 0380 f5a4 f6bf 9518 b3bf
00000330: 1271 0200 c689 6c3e 9f28 1540 32fe 0600
00000340: ce76 0680 3814 0000 d354 0300 a4f1 88bf
00000350: 3343 273f 3b64 0700 e53a 41bf 08d5 76c0

bias f4 [3]
1.7668699 0.54359406 0.6256925
00000000: cb28 e23f fb28 0b3f 622d 203f

weight f4 [3, 8, 4, 4]
4.431e-41 7.882e-42 -9.993e-41 -2.76594e-40 -2.13111e-40 0.362189 1.0833734 -6.3218e-40
1.04558e-40 0.02274437 0.35380346 -5.0548e-41 -1.18029e-40 -4.395e-41 -4.7414e-41 -2.4407e-40
6.72777e-40 -6.36278e-40 6.81112e-40 -5.29355e-40 -2.75631e-40 2.157261 -1.5427885 5.42206e-40
-2.2861e-40 -0.40195528 -0.06963018 -4.98883e-40 6.79324e-40 5.8413e-41 1.13757e-40 -7.30561e-40
1.6609e-40 -7.35261e-40 -7.17103e-40 -3.86e-42 -3.03525e-40 -0.044731226 2.8032835 4.2335e-40
7.15176e-40 1.5346444 0.15555516 2.12697e-40 -5.85683e-40 -2.87132e-40 -2.40513e-40 3.36296e-40
-1.23156e-40 -7.08072e-40 1.62223e-40 6.47836e-40 -1.0421e-41 -0.8364699 1.2914819 -2.33553e-40
-4.48107e-40 0.011060068 1.9654026 1.05972e-40 7.21272e-40 1.10394e-40 7.53028e-40 -5.6555e-41
-7.28431e-40 2.01857e-40 7.28588e-40 1.04933e-40 3.51703e-40 0.29482993 0.8526813 -1.55666e-40
5.213e-42 -0.12876798 1.4658471 -6.7617e-40 6.45588e-40 -1.77511e-40 -4.66498e-40 3.90099e-40
9.8374e-41 1.68643e-40 -5.15958e-40 4.29397e-40 6.93412e-40 0.77233976 -0.0040665264 -1.19437e-40
6.38018e-40 2.5203416 0.69463104 1.09691e-40 2.85876e-40 -6.82145e-40 -7.32104e-40 2.74695e-40
-1.72304e-40 -1.11647e-40 5.31398e-40 6.8059e-40 -3.4446e-40 0.10318851 -0.24751152 -5.731e-42
-5.91275e-40 0.6423164 -0.5780835 -6.4709e-41 2.16115e-40 -4.976e-41 2.12207e-40 -6.87865e-40
-1.7298e-41 1.35985e-40 -1.97674e-40 -6.30807e-40 -4.2374e-41 0.04346584 0.609718 -1.69112e-40
-6.2227e-41 -0.20586124 0.5932619 -2.73675e-40 5.77455e-40 3.8293e-40 2.79263e-40 -6.31941e-40
-3.0049e-40 -1.05511e-40 1.09122e-40 5.28315e-40 5.44887e-40 -0.3908629 -1.7752633 -6.97931e-40
6.63043e-40 -0.12206498 -1.8721427 5.1906e-40 -6.39684e-40 -5.088e-41 5.80075e-40 2.2292e-40
-6.646e-40 2.62815e-40 7.1796e-40 1.61184e-40 2.22487e-40 0.47122157 -0.3627456 3.75247e-40
-6.82997e-40 -0.36931774 -0.03035868 7.43109e-40 6.63578e-40 -2.14942e-40 -7.23611e-40 7.30093e-40
-4.6695e-41 -3.875e-42 -1.64891e-40 -4.64664e-40 2.0957e-40 0.07021528 1.4711641 3.35964e-40
-5.8639e-41 -0.33171782 1.0723971 7.26181e-40 5.82982e-40 1.70757e-40 -4.8467e-41 -6.68959e-40
-6.18198e-40 4.8977e-41 -6.02446e-40 5.21873e-40 -2.7915e-40 1.5886282 1.5974321 -3.64273e-40
4.95393e-40 0.27776408 0.35760564 -7.3025e-40 6.61568e-40 -6.72828e-40 -7.32313e-40 1.65534e-40
2.35393e-40 -1.62776e-40 6.48074e-40 4.05672e-40 5.41959e-40 0.9416395 -1.6284432 -7.0051e-41
-4.81726e-40 -0.12057851 -2.2457972 -5.04715e-40 1.58141e-40 -4.59302e-40 -5.7171e-40 -2.68315e-40
5.22836e-40 2.83507e-40 -1.55013e-40 -3.39881e-40 5.6929e-41 -0.9305589 -0.15684105 -5.22036e-40
4.64026e-40 -1.6519663 -1.1115786 -7.42939e-40 2.17954e-40 -4.42271e-40 -5.06942e-40 2.06114e-40
6.0395e-41 4.5327e-40 4.64998e-40 5.92225e-40 -6.74959e-40 0.014918173 0.33645678 -7.40244e-40
1.14597e-40 -0.5278034 -1.0936099 5.65495e-40 6.52854e-40 -2.57389e-40 5.95458e-40 3.4706e-41
-5.77034e-40 2.74569e-40 -1.59434e-40 5.8273e-41 -2.01993e-40 -0.016823117 1.0065471 1.6541e-40
-2.2013e-40 -0.016050616 0.77347314 -6.66784e-40 -1.03305e-40 -6.01463e-40 -5.41463e-40 5.9645e-40
00000000: 857b 0000 f915 0000 9016 0180 0803 0380
00000010: 1152 0280 d670 b93e fbab 8a3f 43e2 0680
00000020: 7723 0100 6752 ba3c ba25 b53e e88c 0080
00000030: 0449 0180 847a 0080 2c84 0080 5ea8 0280
00000040: 6e53 0700 afed 0680 aa6a 0700 a0c3 0580
00000050: 5900 0380 9010 0a40 187a c5bf 73e7 0500
00000060: 467d 0280 15cd cdbe 459a 8ebd af6e 0580
00000070: ae65 0700 d5a2 0000 1c3d 0100 82f4 0780
00000080: fece 0100 9c01 0880 fece 0780 c30a 0080
00000090: 1b4e 0380 1738 37bd ff68 3340 219c 0400
000000a0: 9fc9 0700 3a6f c43f da49 1f3e ea50 0200
000000b0: a560 0680 6820 0380 749e 0280 75a9 0300
000000c0: 4f57 0180 d1b5 0780 36c4 0100 e70d 0700
000000d0: 0d1d 0080 e422 56bf 474f a53f 0d8b 0280
000000e0: 24e1 0480 4a35 353c 5092 fb3f 6827 0100
000000f0: 9dda 0700 bc33 0100 2333 0800 a79d 0080
00000100: 92ee 0780 b232 0200 02ef 0700 8324 0100
00000110: 68d4 0300 f3f3 963e 5249 5a3f efb1 0180
00000120: 880e 0000 c1db 03be e1a0 bb3f e35c 0780
00000130: a307 0700 d4ee 0180 6814 0580 703f 0400
00000140: 3a12 0100 1cd6 0100 489e 0580 fcac 0400
00000150: f38c 0700 0fb8 453f 7f40 85bb f14c 0180
00000160: 89f2 0600 474d 2140 57d3 313f c631 0100
00000170: e81c 0300 8b6d 0780 cff8 0780 bdfd 0200
00000180: 50e0 0180 3a37 0180 52c9 0500 3569 0700
00000190: 37c0 0380 7f54 d33d a973 7dbe fa0f 0080
000001a0: 3c70 0680 d96e 243f 48fd 13bf 62b4 0080
000001b0: 715a 0200 b68a 0080 8c4f 0200 7d7d 0780
000001c0: 3830 0080 127b 0100 0927 0280 6fde 0680
000001d0: 1f76 0080 3d09 323d 7b16 1c3f 6ad7 0180
000001e0: 77ad 0080 4acd 52be 03e0 173f e5fa 0280
000001f0: b649 0600 742b 0400 790a 0300 98e1 0680
00000200: a545 0380 1f26 0180 3030 0100 bac0 0500
00000210: ecee 0500 2f1f c8be d43b e3bf 8c99 0780
00000220: 4b38 0700 34fd f9bd 5fa2 efbf eea6 0500
00000230: 2ef7 0680 d58d 0080 0351 0600 696d 0200
00000240: a23c 0780 9fdc 0200 61d1 0700 51c1 0100
00000250: 346c 0200 f443 f13e cbb9 b9be 0916 0400
00000260: eb6f 0780 3717 bdbe c4b2 f8bc 7c17 0800
00000270: c939 0700 2c57 0280 22e1 0780 34f3 0700
00000280: 2b82 0080 cd0a 0080 a6cb 0180 4b0f 0580
00000290: 3248 0200 07cd 8f3d 1b4f bc3f 88a8 0300
000002a0: 76a3 0080 ebd6 a9be 4f44 893f 4ce8 0700
000002b0: 1e59 0600 00dc 0100 1b87 0080 c948 0780
000002c0: 49bb 0680 8788 0000 608f 0680 c5ae 0500
000002d0: 280a 0380 2b58 cb3f a878 cc3f 72f7 0380
000002e0: f464 0500 1837 8e3e 1618 b73e a4f3 0780
000002f0: 2f34 0700 9253 0780 64f9 0780 71cd 0100
00000300: 2e90 0200 c1c5 0180 910e 0700 d96a 0400
00000310: c3e6 0500 490f 713f d470 d0bf 46c3 0080
00000320: db3e 0580 def1 f6bd 24bb 0fc0 f17e 0580
00000330: d5b8 0100 5900 0580 b239 0680 f4eb 0280
00000340: 74b1 0500 4d16 0300 1db0 0180 73b3 0380
00000350: b29e 0000 1c39 6ebf f19a 20be 39af 0580
00000360: 840d 0500 a273 d3bf 3548 8ebf 0317 0880
00000370: 915f 0200 dfd0 0480 2685 0580 903e 0200
00000380: 5ba8 0000 88ef 0400 3a10 0500 e272 0600
00000390: 8359 0780 5a6b 743c 1044 ac3e 800f 0880
000003a0: 733f 0100 201e 07bf 69fb 8bbf 5f28 0600
000003b0: e41b 0700 7fcd 0280 e57b 0600 bf60 0000
000003c0: 8948 0680 63fd 0200 70bc 0180 71a2 0000
000003d0: 1333 0280 a2d0 89bc 89d6 803f 19cd 0100
000003e0: a265 0280 957c 83bc 5602 463f b942 0780
000003f0: f91f 0180 a28c 0680 61e5 0580 a97e 0600

bias f4 [8]
0.2610503 -0.5704307 0.20419636 1.6191797 0.46639156 1.1403273 0.19015363 0.025920074
00000000: 63a8 853e bf07 12bf da18 513e 4841 cf3f
00000010: e0ca ee3e 3ff6 913f a2b7 423e 5656 d43c

weight f4 [8]
0.6802379 1.5897363 1.9516903 2.1847448 0.93944836 1.4299449 1.4047968 0.6286893
00000000: 1224 2e3f 7b7c cb3f fdd0 f93f dcd2 0b40
00000010: b07f 703f 6f08 b73f 62d0 b33f c8f1 203f

bias f4 [8]
0.25089502 -0.04350881 0.1805092 -0.59118634 -0.44757017 -0.41601473 -0.29576072 0.48518047
00000000: 5075 803e 4b36 32bd 67d7 383e fd57 17bf
00000010: eb27 e5be e2ff d4be f36d 97be 9369 f83e

running_mean f4 [8]
12.110474 50.177067 77.3898 65.1664 44.556004 49.390537 28.11133 40.028076
00000000: 80c4 4141 51b5 4842 94c7 9a42 3255 8242
00000010: 5939 3242 e98f 4542 01e4 e041 c01c 2042

running_var f4 [8]
304.2917 2086.352 3124.2234 3403.8757 1573.037 2261.6245 2432.7886 2940.4448
00000000: 5625 9843 a265 0245 9343 4345 03be 5445
00000010: 2fa1 c444 fe59 0d45 9e0c 1845 1ec7 3745

weight f4 [8, 16, 4, 4]
-0.06068449 -0.2536275 -0.06261581 0.023502259 -0.16299051 -0.955389 -0.05587319 0.029804831
-0.07703544 -0.020488258 -0.13658923 -0.25735977 -0.043860752 0.20130621 0.011880075 0.0149473995
0.4404569 -0.47070628 1.1608343 0.014850431 0.007383855 0.30873173 -1.3245858 0.55424076
0.025551463 -0.31185538 0.48704544 0.011040403 0.6104309 -0.022807334 0.13698663 0.0035066754
0.25724718 0.28589365 0.057921093 -0.5105567 -0.26625836 -0.53603023 -0.11438855 -0.05320289
0.14064845 0.9003815 0.45110363 -0.038801447 1.1354872 0.14048763 0.88085985 0.022612464
0.030074418 0.43831855 0.051956844 0.061598554 -0.017323961 1.1874703 0.3284842 -0.23628816
-1.3482095 0.059262667 0.30703843 -0.36670125 -0.044453967 0.0138328215 -0.26343852 -0.01885404
0.5169025 -0.16175467 0.2108388 -0.052750863 1.0914633 -0.2574678 1.2784889 -1.1806736
-0.008953339 0.48605752 1.4071071 0.6573632 -0.47405756 0.06061763 -0.5318834 0.13305096
-0.01895674 -0.788118 0.5200905 0.07897009 -0.05411985 0.22033113 1.092065 -0.8860786
-0.2546987 -0.04804971 0.04550567 1.0714732 0.3164648 -0.21557473 0.8482106 0.18072417
-0.357887 1.1611942 -0.14037421 -0.5574585 0.33576983 1.324867 -0.52645504 0.26355207
1.0965219 0.43682498 -0.113105625 -0.43543673 0.0021154005 0.20734087 1.0362142 -0.1386185
-0.91638225 -0.15575835 -0.040956482 0.018421644 0.46517643 -0.2564432 -0.093225196 -0.30577916
-0.08106641 -0.5814016 -0.42120057 0.48262098 -0.30158967 -0.34698346 -0.38316008 -0.72010916
-0.3681632 0.010708914 -1.3467627 0.07251046 0.030363236 -0.60944384 -1.6287345 -0.8092187
0.044003546 0.13545294 0.8861537 0.76436436 -0.020326208 -0.1792648 0.63787276 -1.1654567
0.7852358 0.3832416 0.019537365 -0.51006854 0.2842797 0.029575411 -0.03429974 -0.5675662
1.2974741 0.14453909 0.8265439 -1.0215786 0.07103511 0.16736752 -0.22750255 0.10387379
-0.0434499 -0.15543 -0.44872865 0.1137834 1.4810393 0.11839545 0.24932465 0.68642384
-0.05851813 -0.3421143 0.09898782 0.083458036 0.07299169 0.3965081 0.3977885 -0.01162323
0.08063907 0.009976883 -0.17831323 0.013010311 -0.076281354 -0.95351547 0.3022976 -0.110674225
-0.992513 0.30385944 -0.14663416 0.025225498 -0.05502165 -0.065118134 0.19822341 -0.018562982
-1.8483876 0.23125318 -0.07448244 0.12776881 0.35847276 0.46372628 0.23652782 -0.40525857
-0.26666504 -0.013161488 -0.5632678 0.0025959217 -0.40167597 0.7918988 -0.478753 0.013332171
-0.29297006 0.03615973 -0.47044772 -0.04925051 1.1179847 -0.24921356 -1.041654 -0.083925545
0.6775248 -0.10948557 0.8217789 0.074098706 0.16067913 0.4819406 -0.282569 0.28928503
0.024945611 -0.5561945 -0.34585977 -0.879254 -0.12328776 0.03937073 -0.1515126 0.056137662
1.2353005 1.2528623 1.4018505 -0.34766442 1.3501436 -0.027435685 -1.388674 -0.029015213
0.05624572 -1.1407883 -0.14544831 -0.49648523 0.28464976 1.5717266 1.0406353 -0.50419915
-0.05246577 0.45189443 -0.3477147 0.043581355 -0.30467942 0.75773835 1.0190967 0.12627019
00000000: 4d90 78bd 77db 81be b83c 80bd cf87 c03c
00000010: fce6 26be 6094 74bf 49db 64bd 4329 f43c
00000020: c2c4 9dbd fed6 a7bc 0cde 0bbe a9c4 83be
00000030: 55a7 33bd 3723 4e3e a5a4 423c f0e5 743c
00000040: 9183 e13e 6a00 f1be 3896 943f 394f 733c
00000050: 44f4 f13b 1612 9e3e 078c a9bf b9e2 0d3f
00000060: 4d51 d13c 82ab 9fbe 055e f93e cee2 343c
00000070: 3345 1c3f 72d6 babc 3946 0c3e 40d0 653b
00000080: e7b5 833e a760 923e ab3e 6d3d d8b3 02bf
00000090: 0453 88be 4739 09bf 8b44 eabd 46eb 59bd
000000a0: 2606 103e 677f 663f 0ef7 e63e 44ee 1ebd
000000b0: a557 913f fddb 0f3e 0880 613f c63d b93c
000000c0: a05e f63c 4a6b e03e b3d0 543d c44e 7c3d
000000d0: fbea 8dbc 07ff 973f 152f a83e 86f5 71be
000000e0: 2192 acbf 69bd 723d 2434 9d3e 44c0 bbbe
000000f0: 5d15 36bd 0fa3 623c 6ae1 86be ca73 9abc
00000100: b953 043f 04a3 25be 20e6 573e 4a11 58bd
00000110: 12b5 8b3f d2d2 83be 86a5 a33f 5020 97bf
00000120: 07b1 12bc 88dc f83e 161c b43f f448 283f
00000130: acb7 f2be 314a 783d 8329 08bf 833e 083e
00000140: 2a4b 9bbc 1ac2 49bf a724 053f 12bb a13d
00000150: c7ac 5dbd 7c9e 613e c9c8 8b3f 0cd6 62bf
00000160: de67 82be c6cf 44bd 2764 3a3d 0926 893f
00000170: ad07 a23e 9fbf 5cbe 5424 593f c20f 393e
00000180: f73c b7be 03a2 943f 42be 0fbe 9ab5 0ebf
00000190: 06ea ab3e 3e95 a93f c2c5 06bf 4cf0 863e
000001a0: d45a 8c3f 86a7 df3e eca3 e7bd 90f1 debe
000001b0: 88a2 0a3b 2a51 543e aba2 843f 02f2 0dbe
000001c0: 0798 6abf 1e7f 1fbe fcc1 27bd fde8 963c
000001d0: 9b2b ee3e 864c 83be daec bebd 168f 9cbe
000001e0: 2506 a6bd bcd6 14bf 9aa7 d7be 191a f73e
000001f0: f669 9abe d1a7 b1be 8f2d c4be 1359 38bf
00000200: e37f bcbe 7174 2f3c b862 acbf 5d80 943d
00000210: 52bc f83c 8304 1cbf 5f7a d0bf f528 4fbf
00000220: 103d 343d 2db4 0a3e f8da 623f 62ad 433f
00000230: 2683 a6bc 3191 37be a14b 233f af2d 95bf
00000240: 3705 493f 3e38 c43e d30c a03c da93 02bf
00000250: 1c8d 913e 2248 f23c e27d 0cbd 054c 11bf
00000260: a213 a63f 0e02 143e 6298 533f 16c3 82bf
00000270: db7a 913d 6462 2b3e 6ef6 68be c8bb d43d
00000280: 86f8 31bd 0b29 1fbe c3bf e5be 4507 e93d
00000290: b292 bd3f 5079 f23d f64e 7f3e 79b9 2f3f
000002a0: b5b0 6fbd 9b29 afbe 20ba ca3d 0cec aa3d
000002b0: ab7c 953d 1c03 cb3e efaa cb3e 5c6f 3ebc
000002c0: 1926 a53d 1576 233c be97 36be 3329 553c
000002d0: 6639 9cbd 9719 74bf c0c6 9a3e 2ba9 e2bd
000002e0: 5515 7ebf 7793 9b3e 4427 16be b4a5 ce3c
000002f0: 625e 61bd a85c 85bd 14fb 4a3e 6511 98bc
00000300: f797 ecbf a2cd 6c3e 408a 98bd d4d5 023e
00000310: be89 b73e 886d ed3e 5934 723e 0d7e cfbe
00000320: 5288 88be 48a3 57bc 5232 10bf 5720 2a3b
00000330: 79a8 cdbe e1b9 4a3f 1d1f f5be 2e6f 5a3c
00000340: 2c00 96be 3a1c 143d 86de f0be e7ba 49bd
00000350: 1f1a 8f3f d731 7fbe eb54 85bf 28e1 abbd
00000360: 4472 2d3f f839 e0bd 1a60 523f 10c1 973d
00000370: 1289 243e ebc0 f63e e2ac 90be 2b1d 943e
00000380: bd5a cc3c c362 0ebf 8814 b1be ca16 61bf
00000390: 4b7e fcbd 3443 213d 1e26 1bbe 9bf0 653d
000003a0: 541e 9e3f cb5d a03f d66f b33f 1201 b2be
000003b0: 81d1 ac3f cdc0 e0bc 12c0 b1bf 50b1 edbc
000003c0: e961 663d 5a05 92bf 67f0 14be 5033 febe
000003d0: 9dbd 913e 562e c93f 8a33 853f 3213 01bf
000003e0: 59e6 56bd b55e e73e a907 b2be 5d82 323d
000003f0: f1fe 9bbe 24fb 413f c371 823f f94c 013e

bias f4 [16]
-0.10405657 0.6765347 1.967787 0.6894727 3.5809522 4.0164566 2.4732065 2.59363
-0.0866736 0.86277413 3.2784467 0.37322235 1.7020489 1.4949633 1.3149874 2.5964665
00000000: 9c1b d5bd 6131 2d3f 72e0 fb3f 4881 303f
00000010: 522e 6540 d086 8040 0449 1e40 09fe 2540
00000020: ee81 b1bd c4de 5c3f 12d2 5140 0017 bf3e
00000030: bddc d93f f55a bf3f 8251 a83f 822c 2640

weight f4 [16]
1.8761715 1.3548268 1.4325671 1.3893626 2.368014 1.3785825 1.6431607 1.492692
2.0190425 1.0505605 1.8021834 1.8807694 2.0086968 1.5131925 2.3438208 1.5766554
00000000: 6326 f03f f76a ad3f 5c5e b73f a2d6 b13f
00000010: 8b8d 1740 6475 b03f 1753 d23f 8810 bf3f
00000020: fe37 0140 c478 863f f2ad e63f 0dbd f03f
00000030: 7d8e 0040 4bb0 c13f 2901 1640 d8cf c93f

bias f4 [16]
-0.39640722 -0.24918634 -0.34187865 0.24329798 0.7633012 -0.061195068 0.68784 -0.74735624
0.3935933 -0.75941426 -0.0819277 0.18152043 -0.4523694 -0.17024508 0.22538924 0.15114678
00000000: e3f5 cabe b42a 7fbe b80a afbe 1b23 793e
00000010: b567 433f aea7 7abd 4816 303f bd52 3fbf
00000020: 1085 c93e f968 42bf b6c9 a7bd 7ee0 393e
00000030: f69c e7be ba54 2ebe 70cc 663e 39c6 1a3e

running_mean f4 [16]
2.3158963 2.245756 5.0318556 2.6291366 5.93715 6.1613975 6.431952 4.8686566
4.6048284 3.196449 3.4585574 2.8087792 5.1083903 5.6580772 4.566235 5.4870243
00000000: a537 1440 77ba 0f40 f604 a140 c643 2840
00000010: 22fd bd40 2b2a c540 8dd2 cd40 09cc 9b40
00000020: c15a 9340 9f92 4c40 0159 5d40 0ac3 3340
00000030: ef77 a340 f80e b540 991e 9240 b495 af40

running_var f4 [16]
29.105011 29.41688 38.987175 28.097034 47.841938 48.934757 44.776634 37.3569
44.224396 22.809912 25.23379 22.124557 53.08285 74.9594 54.963852 39.85214
00000000: 10d7 e841 c555 eb41 def2 1b42 bac6 e041
00000010: 255e 3f42 31bd 4342 461b 3342 776d 1542
00000020: c8e5 3042 b37a b641 cdde c941 18ff b041
00000030: d754 5442 36eb 9542 fcda 5b42 9768 1f42
