train/onehot_sigmoid.pt (torch, 40367 bytes, 8 tensors)

weight f8 [32, 1]
0	0xc01b3b86a09a100e	-6.808130750087015
1	0xc01ce85a6619e713	-7.22690734418008
2	0xc01993a75192fb89	-6.394192957492927
3	0xc020e534580f07ad	-8.447664977869715
4	0xc00dbc7fd723b1d1	-3.717040711190045
5	0x400e606b570c0739	3.79707973485429
6	0x4009df72411857d3	3.234104641490356
7	0xc018fd9c179eddb6	-6.247665757247367
8	0xc0191abab0afe509	-6.276102791534194
9	0xc019db9749df9704	-6.464444307586522
10	0xc018d92df6d184d1	-6.212089401758207
11	0x4011bbf19cf6fad2	4.433538868498276
12	0xc019133f79baccd9	-6.268796827341441
13	0xc019234c37f921d9	-6.284470438557457
14	0xc0254d19dbd812c0	-10.65058791172612
15	0xc01a0bc742250cea	-6.511502297889118
16	0xc0185b8c07fb8e32	-6.08940136406777
17	0xc01af3e57199155d	-6.738179945915673
18	0xc01adb5e035850be	-6.714225818887085
19	0xc019618fa348a391	-6.345274497326401
20	0x4009de920d3a6d4d	3.2336770089583866
21	0xc01b0eab6642b77a	-6.764325712034287
22	0xc01e6d4c14c6375a	-7.606735539053114
23	0xc0190e3d2e72bee8	-6.263905263665698
24	0xc02194b0d85c7ba0	-8.790411721505563
25	0xc00c41cf0344da06	-3.532133126772581
26	0x3fea5b8734073feb	0.8236728683641535
27	0x4011142210a851bf	4.269661197923084
28	0xc018b682cfd30608	-6.178233382468086
29	0xc01a238bb0e48aaa	-6.534712566327167
30	0xc01881174e983891	-6.126065471688109
31	0xc018aeeeef6d4b06	-6.1708333406884375

bias f8 [32]
0	0xbfe62828ac772513	-0.6924022072281865
1	0xbff1e4210c869dfb	-1.1181955804148618
2	0xc02623afb2700763	-11.069699836898229
3	0xc008162c6244e36f	-3.010826843001659
4	0xc02263afefbfa381	-9.194701664107699
5	0xc00c026da09a4847	-3.501185660084079
6	0xc00f48f3fc0bf13e	-3.910621613611652
7	0x3fbd3d3e1552633d	0.11421573658516322
8	0xbfb706493787d035	-0.08993966680265049
9	0xbfdab0668a03ce2a	-0.41701663473142736
10	0x3fb46f52b0d09fc2	0.07982365433474484
11	0xc008fd9356429102	-3.123816179186293
12	0xbf6af490dbdd80ae	-0.0032904462122332534
13	0xbfa65803fe1f4388	-0.043640255709426035
14	0xc01ee8b61a9f39cb	-7.7272571716006935
15	0xbfdc33b0c136273b	-0.44065493458093713
16	0x3ff807574e7f6d26	1.5017922464674682
17	0xbfe7f580146948fc	-0.7487182997377029
18	0xbfe5763ac62e0650	-0.6706823225687888
19	0x4008ec111300b738	3.1152669415086187
20	0xc0100780c4dc73f2	-4.007327152209642
21	0xbfe8ee5bf7849193	-0.7790965875943122
22	0xbff521425fe9a541	-1.320619940432451
23	0xbfb0f8f52a831997	-0.06629879272359172
24	0xc00dc2a078ea12f3	-3.7200326391633722
25	0xc022508cc9cf72c8	-9.157324129651343
26	0xc0186fb06d2193b3	-6.109071450399756
27	0xc0099d46e32e544f	-3.2017953632844534
28	0x3fddac1e5283fdf6	0.4636302762810084
29	0xbfdaa8dd2bf2cde8	-0.41655663768616913
30	0x3fe4ba6a5d7af54e	0.6477557969844072
31	0x3fdc04eee37e772a	0.43780109611712936

weight f8 [64, 32]
0	0x402a26926674dcb1	13.075335695042982
1	0x402b4183ef6448ae	13.627959710113227
2	0x3ff570667d3ef6ec	1.3399414913578154
3	0x402d7a52aadfc8de	14.738911952798329
4	0x3fea321e1240ac32	0.8186178547379142
5	0xbffaed877160c519	-1.6829904965237061
6	0xbff3dc0c64a791c3	-1.2412227565592822
7	0x4026ff67676acdb2	11.498835784709488
8	0x40283fcf991da41c	12.124630722873967
9	0x4028ca59e0164742	12.395216944427037
10	0x402895eead761736	12.292836590447774
11	0xbfff1cbb00829624	-1.9445142764974515
12	0x40290596fcc05094	12.510917566753314
13	0x40280640780ce08d	12.012210609027784
14	0x3fffc777b2b772ed	1.9861981373898587
15	0x402909248918ddfb	12.517856869016205
16	0x4025cf794d7b797c	10.905222340891434
17	0x402a3e68eb150939	13.121894213025927
18	0x4029ec3490a160ad	12.961338538836879
19	0x4023c25ca2a35cbd	9.879613001290972
20	0xbff3688692b71a65	-1.2130189639152829
21	0x402a891286fd3b67	13.267719477092852
22	0x402c08cdd7a7ac22	14.017195452897855
23	0x40286eef94e9f87c	12.21667161327445
24	0x402bb82c3f7b3562	13.859712585249046
25	0x3fe54c466cbb9747	0.665560924881654
26	0xbfca2984ab2b4ae3	-0.20439203603617448
27	0xc000ce9ea07ec316	-2.1008884943661412
28	0x402743fcf81ba067	11.632789376613983
29	0x402968f49ac5f6b7	12.704991184869284
30	0x4026de4afe333566	11.434165900946663
31	0x4026f90025f7f8fa	11.486329256553734
32	0x4014b548eba25872	5.177035981925757
33	0x4016bb4e87dec297	5.682916758509825
34	0x3fe1192b2a8d1c1a	0.5343223410681077
35	0x401d06b313160b79	7.256542490215787
36	0x3fc42b32ea392533	0.15756832539254048
37	0xc001e06f651bae80	-2.2345874690125243
38	0xc000bf714e202d90	-2.093477831227297
39	0x400d7cff5b8ee50c	3.686033931062985
40	0x40112a475456a462	4.291287725246635
41	0x40122ed7fe6bb5f4	4.545745826076644
42	0x401181151839417e	4.376057032103175
43	0xc00556ea09520cb0	-2.66743857652326
44	0x4010f56c1199ce46	4.239670062077101
45	0x4011543efba9ee33	4.332271511313183
46	0x3ffac64eb36f5ac2	1.6734148987940647
47	0x4012fabcf91fd0cc	4.744861500326987
48	0x400961e46bac90c1	3.1727989589727206
49	0x4014f2441deb4ca9	5.236587970243968
50	0x4014bbcfc5011fbd	5.183409765428164
51	0x4007e65b7c1f220f	2.9874791810036707
52	0xbffdafde7adfa973	-1.8554367828133678
53	0x40155d12391477f0	5.340889827608393
54	0x40186b8f03c9a709	6.105037745650187
55	0x4011b2f0b85c2853	4.424746399521683
56	0x401ce2caa09e6279	7.221476087252648
57	0x3fc1ef168470ec84	0.1401088854489424
58	0xbfed65721b195434	-0.9186335114742463
59	0xc003e015117d8b96	-2.484415184635007
60	0x400ef03076c5de01	3.867279937661579
61	0x4013a018a0a9a0a8	4.90634394679379
62	0x400d6b7abc981828	3.677480195418884
63	0x400cb4dc95dae181	3.5883113582059996
64	0x4014ba4d9f709a6d	5.181936732528453
65	0x40160077f6145d9e	5.500457615845702
66	0x3fd6bf1407b0d836	0.35541249037794687
67	0x401ceee36ec7b130	7.2332894620306405
68	0x3fd0492e45ee937e	0.25446659879008127
69	0xc001f2bc5e54d618	-2.2435233468666063
70	0xbffe451b7b99d90e	-1.8918719127810308
71	0x400ec48823834d29	3.8459627890057573
72	0x401148f30796b87e	4.321239584516773
73	0x40123f55b286e59a	4.5618503470263025
74	0x4010c974365edfd0	4.196732377567926
75	0xc0056be2fab4db74	-2.6776790224498033
76	0x40111535f7a0e30e	4.270713681406745
77	0x40101c06471502aa	4.027367697389005
78	0x3ff6847a0e65708a	1.4073429643968063
79	0x4012388c9d143b74	4.555223898277166
80	0x40099f6a2b543511	3.2028392205307985
81	0x4013e408ab2dd9de	4.972689318345571
82	0x4014243ced61be82	5.0353886691006
83	0x4008054b9bb47c00	3.00258561749024
84	0xc0010f54de631ac5	-2.1324860929483713
85	0x4013f7467bad2187	4.991479809228969
86	0x40179b705aa96bdb	5.901795784559876
87	0x40114530b4d1cb1d	4.317568612389349
88	0x401d0fa06b56dc97	7.265260388542763
89	0xbf95714b856d030c	-0.020939998644510502
90	0xbff14fc984ce506b	-1.0819792926531828
91	0xc0045daf58329fa5	-2.5457445993851757
92	0x400cb383be338b6b	3.587653623531357
93	0x40135dec8b01fb71	4.841722652431472
94	0x400c0a0b3c38d683	3.5049042420239984
95	0x400dc239741ede8e	3.719836146537836
96	0x400b9ee18cbd1182	3.4525786395262807
97	0x400d89ae1d75bf6d	3.6922266294058574
98	0x3fcc00a563f8775b	0.21876971608520077
99	0x4014cf0070843d8c	5.202150114127459
100	0xbfc0e7d0c923347e	-0.13207444974105792
101	0xc00615cbb8126162	-2.760642469464231
102	0xc0065eec52329c8b	-2.796349184197941
103	0x4002cd6e74bd5172	2.350308334376842
104	0x400622a384c9a0a2	2.766913449671919
105	0x4006ee6d0faada8f	2.866418955232184
106	0x400525eb3da49f8a	2.643515092455293
107	0xc0099a63e82c595d	-3.200385869840075
108	0x4005b016cf00a3db	2.7109810039587336
109	0x4005b91390a362f8	2.715369348512805
110	0x3ffd92ba1bce3df4	1.8483220182569058
111	0x400631f775974931	2.774397772483234
112	0x3fff6f2080c58a1c	1.9646306066648611
113	0x400b27e467303501	3.3944786130510924
114	0x400ace30afca9262	3.350678799981595
115	0x3ffc5a3528e5500d	1.7720233533373204
116	0xc003a13f6c1e1268	-2.453734249751779
117	0x400cb71d5979e008	3.5894114485090576
118	0x4011168884024a46	4.272005140914706
119	0x4005aed4d740592a	2.7103668991577665
120	0x4015965cff8dbe7a	5.3968391351951315
121	0xbfd19e44674f66b5	-0.27528486336596397
122	0xbffaa43dab31a416	-1.6650978743803129
123	0xc0095e42bd93ca1c	-3.1710257349707387
124	0x4002ef1a6197733f	2.3667495369285514
125	0x4007d890726c9429	2.9807442607293706
126	0x40034c77b13d29bb	2.412337670020148
127	0x4002532bf8114012	2.290611207987248
128	0xbff75a6ab199815f	-1.4595744073377188
129	0xbff963b06ffbdc55	-1.5868381857269658
130	0xbfe606c23d1eb768	-0.688325042128537
131	0xc002ada9ad75f72b	-2.3347962905526365
132	0xbfdde3a8b6ed2d2e	-0.46702020515359066
133	0x400d859125e66250	3.6902182541782977
134	0x400b11a37c81b7db	3.3836126067244385
135	0xbff4feba49918ce0	-1.3121893762370789
136	0xbff31acc75fbf0cb	-1.19404264533573
137	0xbff33b039635690e	-1.2019077174687172
138	0xbff5f97b20236a91	-1.3734084372905822
139	0x400fb6c26ff32dd1	3.9642380472266514
140	0xbff42ade2358eeab	-1.2604657536275379
141	0xbff1a7fb8632e5b5	-1.103511356557971
142	0xc002470a7df4f65b	-2.2846879806882447
143	0xbff55481c38b5074	-1.333131564945714
144	0xbff43a6218add64d	-1.264253708269638
145	0xbff6b8d25de6fa8f	-1.4201224964196262
146	0xbff4bc652a142aa2	-1.2959949153616113
147	0xbfde32be17988c96	-0.47184707931791914
148	0x400b6271a20f26ed	3.4230683003305473
149	0xbff790fde4e812cd	-1.4728983823453519
150	0xbffb642f1fee34cd	-1.7119590041432275
151	0xbff6bc4035d0901c	-1.4209596731316259
152	0xc002d0674cd71558	-2.351759529413055
153	0xbfe19f7b1e8997e1	-0.5507178875384363
154	0x40009f3fb0961d04	2.0777581973849255
155	0x400e889562aba2c5	3.8166911800984473
156	0xbff662aa4858cb73	-1.3990881753968238
157	0xbff812df755035f1	-1.504607637648743
158	0xbff5230575e7cd68	-1.3210501294787154
159	0xbff2e2a89b45cf62	-1.180336576971023
160	0xbff4bbf660872655	-1.295889260351392
161	0xbff9365dbde4c267	-1.5757729928701794
162	0xbfeb70dc2f75630b	-0.8575268675732287
163	0xc002e71cfc5b2422	-2.3628482547105856
164	0xbfd15139f0d287cb	-0.270582661798582
165	0x400dc10abc20872b	3.7192587563921697
166	0x400acade1844ba0d	3.3490564247106307
167	0xbff3ebdd17e83104	-1.2450838979594332
168	0xbff469e989dc19ab	-1.275857485308374
169	0xbff5c047764cb421	-1.3594431515769048
170	0xbff589ac6f4df032	-1.346111712248796
171	0x40104beab9209f43	4.074137585273834
172	0xbff962614ff726df	-1.5865185855531576
173	0xbff637573546669c	-1.38851090250538
174	0xbffeff8f07e1535a	-1.937392264158197
175	0xbff3f7d9ef80bd89	-1.2480105739194605
176	0xbff185718e34f96a	-1.0950789980848534
177	0xbff543e618002864	-1.3290768563770365
178	0xbff8f1d30c7fd7d0	-1.559039162469606
179	0xbfdbcd5cdbc9d984	-0.434409346234496
180	0x400a34e857b83433	3.2758337834443636
181	0xbff5aaa77e180fd4	-1.3541636395975631
182	0xbffcdfb5fbdffb7c	-1.8046169127335068
183	0xbff8556fecd446cb	-1.5208586932316617
184	0xc0028061617cc359	-2.312685739154784
185	0xbfd233c1b34dd7e2	-0.2844089747444497
186	0x40020bb4cb90eb01	2.255715933189436
187	0x400e8203e190f558	3.8134839651453767
188	0xbff234fc2f4de07d	-1.1379358146496366
189	0xbff58a11b9c63b59	-1.3462083107767369
190	0xbff477e26f5301ee	-1.2792686794856496
191	0xbff3d4270be57be0	-1.2392950501159632
192	0xbfff4de2222b8f00	-1.956514485814239
193	0xc0030160abef7260	-2.3756726677368505
194	0xbfd310ad03e65a22	-0.2978928125461683
195	0xc00af2a00d52cb06	-3.368469337548393
196	0x3ff3dac0a34bb53e	1.2409063700427647
197	0x4018eac2481954c6	6.229256750627604
198	0x4016cf996e64eff3	5.702733731184696
199	0xbff4b73603fab440	-1.2947292476121817
200	0xbffce32ed5f108f1	-1.805464587887908
201	0xbffddd61a942092c	-1.8665482150686996
202	0xbffd0998ef689786	-1.8148431159874874
203	0x401bcd866b2f77da	6.950708079120853
204	0xbffcf93d8b87f735	-1.810849709552213
205	0xbff740b12800a32f	-1.4532939493748918
206	0xc005e8304e355d33	-2.73837338543276
207	0xbffcb238b00d01b7	-1.7935110928520837
208	0xbfe7d9b525aaa60c	-0.7453256354976374
209	0xbffd96e5f5d6f9b8	-1.8493404009928849
210	0xc0011ad479bc84d7	-2.1381005774170307
211	0x3fe0b6cce1d95961	0.5223144923318551
212	0x4017da865ed774e1	5.963403207683968
213	0xc00009320758c497	-2.0044899534191916
214	0xc002b982a65fad76	-2.340581226153229
215	0xbffa8799131d4d35	-1.65810496775232
216	0xc00aeff1a40a2f95	-3.3671601119621735
217	0x3ff83fe2d8015c46	1.5155971944530093
218	0x401150f7b33da0b3	4.329069901119669
219	0x401a30714a348deb	6.547307166536011
220	0xbff32446ec80cbd9	-1.1963567007448914
221	0xbfff7f8a90b8ce80	-1.9686380055617576
222	0xbff3cb12c70b1523	-1.2370784545067373
223	0xbff69c82e107062e	-1.4132107534536646
224	0x402a5fb87679333e	13.186954214377348
225	0x402ba1beeea4ca26	13.815909822097705
226	0x3ff04a16f1142287	1.0180882851729238
227	0x402d768d9407c444	14.731548906276778
228	0x3fe8a1edc27b55d3	0.7697666929695351
229	0xbffadc6401eee502	-1.6788063121333043
230	0xbff437fb8e29ceb1	-1.263667636228018
231	0x40271268c71c3a5d	11.535955640979575
232	0x402844316d24d2fa	12.133189593072064
233	0x4028cfede4297589	12.406111841259888
234	0x40283c600cc5eaf6	12.117920302543535
235	0xbfffc5259ae58b7e	-1.9856315661097308
236	0x4028199114a56ead	12.049935002512337
237	0x4027b5a96a4f7df6	11.854808160976045
238	0x3fffd4acddf03e0a	1.989422671267564
239	0x4028c6cfecda9ef4	12.388305093466876
240	0x4024c2359b612ba7	10.379315238582263
241	0x4029e3ad6795063d	12.944682347241832
242	0x4029cba2765e6864	12.897723864578616
243	0x4022bf4f036857a8	9.37364969872199
244	0xbff51905d6ffd927	-1.318609084931788
245	0x402a02f2fff55345	13.005760191628392
246	0x402c4ad55b037e10	14.146159023453066
247	0x4028198793a6037b	12.049862493529636
248	0x402c116f13b76f81	14.034050575391804
249	0x3fe7abba32ad7645	0.7397128095432853
250	0xbfe35679fb5bb7b8	-0.6043062123624088
251	0xbfff26e1542f14c7	-1.9469922340806975
252	0x402663443205c3e3	11.1938796646154
253	0x4029856eb487575e	12.760610238572266
254	0x40269271f6529b75	11.286025712570089
255	0x402660a33621316b	11.188745204498181

bias f8 [64]
0	0x3fc99f1bac82d4af	0.20016809390441412
1	0xbff7fa03adc74844	-1.4985386646481098
2	0xbff699d725103588	-1.412558693674642
3	0xbfff4251ca561263	-1.953691282630779
4	0x4002167d55483a0c	2.2609812414805273
5	0x40009ba690be4b6e	2.076001292044956
6	0x40099a9be48d06e4	3.2004926543748855
7	0x3fca6256a054a812	0.20612604931494666
8	0xbff7cbc98cf0b95d	-1.4872527604562358
9	0xbff88dbc1bdd5703	-1.5346032227002417
10	0xbff71e74773c25c1	-1.4449352891555096
11	0xbfff9b5aa51f27af	-1.975428242689741
12	0x3ff08ce7a6996236	1.034400606897305
13	0xc016332995851399	-5.549963318106983
14	0x3ffd1aa30f2b5080	1.819003161673237
15	0xbfe682fc87df3a0b	-0.7034895566701506
16	0x3ffe90829310c356	1.910280775522741
17	0x4000a159dee13931	2.0787846958620766
18	0x400a3b06d230f822	3.2788216038889155
19	0x3fe59cc2f61bebed	0.6753859335725544
20	0xc00005bdadf6b7ff	-2.002803191272505
21	0x400997492fe85c34	3.1988700621400543
22	0xbff72d9bd99afbdc	-1.4486349582873492
23	0xbff99c611f3c4916	-1.60067856026996
24	0xbfe9f635312356db	-0.8113046607711242
25	0x3fd54e65ef3cb615	0.33291004527095086
26	0xbff6fd92312d5fb2	-1.4369069977746958
27	0x3fd4a17551532a34	0.3223546308696854
28	0xbfff1fac74abff0d	-1.945232825993972
29	0x40089219a6135e9a	3.071337983575927
30	0x4009b0111724cafa	3.210970097360925
31	0x4000e2482dbe7776	2.1104892324209983
32	0xbfff37cf55a8317f	-1.9511254640557067
33	0x40017b8bf67c81d0	2.1853255516764207
34	0x40022525f49946a8	2.2681388005519985
35	0xc0001420126277c3	-2.0098267971324915
36	0x40094a08c3a7632a	3.1611495290238922
37	0xbfe97a2a410b7200	-0.7961627264408548
38	0x4002f434ecfc06a9	2.3692415728008496
39	0x3fdcfa9f7e5dca18	0.4527968153044255
40	0x400142fcf4750441	2.157709035702766
41	0x400830e66a08567d	3.0238769801897534
42	0xbffdf5a9409ceeff	-1.8724758647867359
43	0x400a0950f2c24216	3.2545489278347857
44	0x400288d1c8d6413f	2.3168063822160145
45	0x4001e539031f38ac	2.2369251483824737
46	0xc00410c148f61546	-2.5081811618898966
47	0xbffecdcc28340f71	-1.9252435274547361
48	0xc000baf8fc20e52e	-2.091295213464625
49	0xbffe9ff7a913ecbd	-1.9140545467951562
50	0x3fec77a7cbfe4ee5	0.8896063789602208
51	0x4008cf772f39e3c4	3.101301545099405
52	0x40020c9ea4c25aca	2.256161963635667
53	0xc000233613ae30f8	-2.017192987206837
54	0x3ffe79e3bdf96edf	1.9047582074044198
55	0xbff8ff8a1e958ba4	-1.562387580365546
56	0x4008b829fb401db4	3.089923823255697
57	0xbff79db55c6d7fcc	-1.4760030374964002
58	0x3fd9f41b3f09be0a	0.40552407413540037
59	0x40076c10453b6e68	2.927765408397864
60	0xc011a9774f75542b	-4.415494195495778
61	0xbfe73a5aaff9ca0d	-0.7258733212495955
62	0x3fd2756bd2595bf4	0.2884168199720414
63	0xbfe1f8df9803aad9	-0.5616300553350256

weight f8 [32, 64]
0	0x3fc4f3befb5b09d8	0.16368853829597074
1	0xc025a6919b881f0b	-10.825329647413602
2	0xc024466e795ffd41	-10.137561600654069
3	0xc033e9d6c93013fd	-19.913433622587025
4	0x3ff9469cfccd28cf	1.579739558701977
5	0x3ff445e2b9680813	1.2670619242130712
6	0x3ff179e7f1727489	1.0922622138525944
7	0xbfe14c8248413ceb	-0.5405894671656858
8	0xc027384cb6406c41	-11.609960265506858
9	0xc02547d57b8cf0ae	-10.640300618128403
10	0xc023a4a03957e918	-9.821534912091508
11	0xc034f8a36bdf02d9	-20.971243612238002
12	0x3fe846c95051b640	0.7586409157499432
13	0xbfe07e9f11d8df44	-0.5154567097260743
14	0x40103971de8d8849	4.0560984395870685
15	0xc01bcf876375e088	-6.952664903707166
16	0x3ffc42b6d2e4c79a	1.7662876356157313
17	0x3ff363ab115dacad	1.2118330648761841
18	0x3ff32882455e7a12	1.1973898610809823
19	0x40060c91554ea3b1	2.756136576139817
20	0xc035bbc2970b4161	-21.733437958000085
21	0x3ff238b2cead04e8	1.138842398955882
22	0xc02514d26e3fa5b6	-10.540667958516547
23	0xc023346ba0ca7bed	-9.602383637158676
24	0xc01debd75ba4e65e	-7.480313713016214
25	0x3fb3bdc8bfe4109c	0.07711462673984432
26	0xc027ebb9343b8c74	-11.96039736964142
27	0x3f93023f14e9f907	0.018563256885038928
28	0xc032333abf887545	-18.2001151760244
29	0x3ff506999bfad893	1.314111336990696
30	0x3ff1fd8dc3f09d3b	1.1244027761366187
31	0x3ff47035f6fa54da	1.277395214802985
32	0xc0329425efd62fc6	-18.57870387057462
33	0x3ffb25c24d778b6e	1.6967185045293394
34	0x3ff7f91ffab39ce4	1.4983215134650942
35	0xc0340bbf8217420b	-20.04589093272993
36	0x3ff5427c83bd89db	1.3287320276364116
37	0xc01e5f9657173e49	-7.593346939843806
38	0x4007329b04ad606c	2.899709736386333
39	0x3f9e3de0ffe10034	0.029532924287423337
40	0x3ff6c0bf6e63bb68	1.4220575630276588
41	0x3ff30dfd07104558	1.1909151340408552
42	0xc031058be804c6e7	-17.0216660510695
43	0x3ff34536e530d994	1.204398055340424
44	0x3ff2355a17df2be4	1.1380253727427254
45	0x3ff68fc22b8637ba	1.41009728433299
46	0xc02ffae778a79418	-15.99004723592411
47	0xc033bf4fc7dd5d9a	-19.74731110720095
48	0xc0357540dda46510	-21.458021023402637
49	0xc03399d8f4bd5901	-19.600966736056765
50	0x400626fe9a05b19d	2.7690403016078577
51	0x3ff3dedb8423482b	1.2419085656770317
52	0x4003ea91849eb822	2.4895353661477353
53	0xc034b35f1a708823	-20.70066991088255
54	0x3ffce9aea3b0e743	1.8070513147526561
55	0xc026a9e188a73ef4	-11.331798811355362
56	0x3ff21325aec41ebb	1.1296746088791412
57	0xc02317b4cf0b23fe	-9.546301336393295
58	0xbfda98800b02ad30	-0.4155578715824104
59	0x3ff36b4f347999ef	1.2136985826306235
60	0xbfde6900ba02a283	-0.47515886464183427
61	0xc02199b404b4afeb	-8.80020155625967
62	0xbff41b218d7f9145	-1.2566237952497243
63	0xc01d35f4c72af32f	-7.302691566463905
64	0xbfefe6a6da11d464	-0.996905733029632
65	0xbffee4301e47be41	-1.9307099516698971
66	0xbffb31831158ff3e	-1.6995878865854617
67	0xc01962cda17b6c98	-6.346487544210639
68	0x4010b1ece0806217	4.173755176387679
69	0x4010926dd0ea736d	4.142997040090319
70	0x400005823bef3af5	2.002689808119039
71	0xbfe4bbe67debe422	-0.6479370555308643
72	0xbff9730ed41a3adc	-1.5905903134586685
73	0xbff6a04eb333a2f6	-1.414137554175054
74	0xbff537db3b1a3d71	-1.326136809224263
75	0xc01b9236d94c3d8b	-6.892787356642098
76	0xbfeae453a43aa301	-0.8403719146345737
77	0xc010c5228da93543	-4.192514623119965
78	0x404391451206c49b	39.13492036180943
79	0xbfce877a7cc1cfd7	-0.23850947467474157
80	0x40111b66bb73f0de	4.276759079886885
81	0x4010e6581faee416	4.224945540475366
82	0x4001f5eefe97489a	2.2450847520750132
83	0x4022beb3944ca9f1	9.372463831289652
84	0xc0206b6ff32b5f82	-8.2098384848066
85	0x400046e7339ee27d	2.034620669637944
86	0xbff5854b415fda85	-1.3450424722374532
87	0xbfeda2c14c08aaad	-0.9261175618206231
88	0xbfe39928eb6bcd9d	-0.6124462698048095
89	0xbfea3f2ad820cd1d	-0.8202108594181571
90	0xc00122f7f7c7a33d	-2.1420745237159324
91	0xbfe2df56355425e3	-0.5897627870155556
92	0xc015f06c6e30a016	-5.484788629262786
93	0x3ffe4166b19cdf24	1.8909670770644391
94	0x3ff90aee9dd9766f	1.5651689687723793
95	0x40103cab3734aaaf	4.059246885861895
96	0xc01709715dfc6720	-5.759221523790785
97	0x4011948a80074836	4.3950595859951616
98	0x401329082c24fc30	4.790070237882034
99	0xc01a60e8209c3b4d	-6.594635495696662
100	0x4004086e52b70451	2.50411667462371
101	0xbfe3356a8552330c	-0.6002705196311537
102	0x4035213453ff25d9	21.129704713623003
103	0xbfe85bee8edf02c9	-0.7612221517993812
104	0x4010b54e05f6e448	4.1770554477635145
105	0x3ffb027e098148ba	1.688108479622811
106	0xc0138d84b3c38d21	-4.888201531229499
107	0x40021aa2dffa59a3	2.263005971744137
108	0x40111d0d740fe74f	4.27837163302486
109	0x401149a7e491c9a6	4.321929522894072
110	0xc0146dcbbae45f65	-5.107222480953941
111	0xc019c386609e7329	-6.440942296668063
112	0xc021629d15d9d180	-8.69260471614757
113	0xc019c5f7e909a2a4	-6.443328515256017
114	0x402e459963bf19a0	15.135935895040177
115	0x3ff93e1e2416141f	1.5776654634112288
116	0x402e7d120806be5b	15.244278193305197
117	0xc01c60cb8e2695f0	-7.094526501755794
118	0x400ff95c389cc5f0	3.9967579291194326
119	0xbff6e2a581658df4	-1.430333619552468
120	0x3ff9e2f30086001d	1.6179075260588498
121	0xbff144e7ba98ebdd	-1.0793225563963837
122	0xbfcfce9e8a738459	-0.24849302063288084
123	0x400008a2f6257793	2.004217074411778
124	0x3fe622a1286735e4	0.691727236664232
125	0xbff20d35b2a404d9	-1.1282250383522323
126	0xbfd60a743af2ed7a	-0.3443880630181507
127	0xbfe3be4037660a97	-0.6169739801410569
128	0xc03122c196f59c10	-17.135766444171225
129	0xc0389012ca9fd664	-24.56278673555643
130	0xc03865e1ab6da034	-24.397974695457563
131	0xc0374acf8fdbe533	-23.292229643998507
132	0x3fe7f89b3b622ea6	0.749097457869955
133	0x3fe45de277f0db07	0.6364605276674816
134	0x3fe4ebe2a5cbb9b5	0.653794597454001
135	0xc02ebd6b4fda2e59	-15.369959349997929
136	0xc03afecbd144766f	-26.995297507490644
137	0xc0391f20f5dd403d	-25.121596685901967
138	0xc03790e27350e174	-23.565955359693774
139	0xc0364ecd6b74192a	-22.307821956486045
140	0xc030081a3274817e	-16.03164973587399
141	0xbfdc31c67d08f2bc	-0.44053804598278723
142	0x3ff2455da6d46d85	1.1419350163258468
143	0xc03781807bf82387	-23.50586676414562
144	0x3fe4cf4f82401861	0.6503064674332216
145	0x3fe42fdbca15fa69	0.6308421084393788
146	0x3fe5201679d2f1f4	0.6601669673323713
147	0x3ff0fc3c7b114b40	1.0615811164213511
148	0xc0353a968940f127	-21.228859499316197
149	0x3fe46758db3f417c	0.6376156122369561
150	0xc039aaa1dd0781ca	-25.666532339413415
151	0xc036d71f6984440b	-22.84032306174417
152	0xc03855da43e808cf	-24.335361713551546
153	0xc031140de11119d6	-17.078336779284506
154	0xc03a422dddf69da2	-26.258512375554012
155	0xc0304eb311ec06c1	-16.307419891475323
156	0xc035909951ce0cb2	-21.564839470677448
157	0x3fea97459d67cb9b	0.8309658121419149
158	0x3fe84808290a41ba	0.7587929536403444
159	0x3fe54b2aab8ef129	0.6654256201505052
160	0xc03657633ea1cec5	-22.341358103278953
161	0x3fe80d6257899876	0.7516338071552713
162	0x3fe7bc5583b32c0e	0.7417399952186103
163	0xc036b02c09e19dec	-22.688171975691077
164	0x3fed6c7f7ed0ac41	0.9194943882806755
165	0xc0394ff4f2dbd74f	-25.31233137004102
166	0x3ff205f1c8f36101	1.126451287234943
167	0xc031387c76343c78	-17.220649135354023
168	0x3fe410d9c1d9df87	0.6270569597390797
169	0x3fe618b2a66e9489	0.6905148745178319
170	0xc036439f64ef3aff	-22.264150913625596
171	0x3fe96ce30202981a	0.7945418395290773
172	0x3feaa288479b1de7	0.8323403738549445
173	0x3febaeab2ea306d1	0.8650718603969044
174	0xc02bcd0844a74ac3	-13.900453706189529
175	0xc036b80cfb41d338	-22.718948081560683
176	0xc034724af806a930	-20.44645643389339
177	0xc03616f9ec358814	-22.089751017636516
178	0x3ff0ea11ea9dcd6b	1.057145992727636
179	0x3fe55de96434874f	0.6677138287670717
180	0x3ff15df9a2a7f56a	1.0854431489709335
181	0xc0365d52d0e736b5	-22.364544922302873
182	0x3fe8758c93c1eae1	0.7643492589844209
183	0xc03a677d2cd3b77f	-26.404253770531337
184	0x3fea12044027f0f6	0.8146992924735332
185	0xc0376cba4a1e8497	-23.424717552614847
186	0xc02db0dc52044178	-14.845430911082744
187	0x3fed0c2eaab462d6	0.9077370962214342
188	0xbff07aee9b55268c	-1.0300127093964049
189	0xc03c37b8f6113a1a	-28.21766603394108
190	0xc02a8ff4e043cc25	-13.2811651308785
191	0xc0381d8b393c82d4	-24.115405633233266
192	0x4016e14b4c21d8fc	5.720013799253362
193	0x3fea99a018765deb	0.8312530973225284
194	0x3fe9fd67ac455cc6	0.8121832241694384
195	0x3fda761e34dbcc08	0.41345935022326374
196	0x3fd324f0f1333ab8	0.2991297107190962
197	0x3fc8a89612e385df	0.1926448433141976
198	0x3fc939cc3912ee00	0.19707634722531964
199	0x4014c58ad31117df	5.192912385862626
200	0x3fe2106909cf6c18	0.5645032111746131
201	0x3fe724d1012ae9ef	0.7232441923909486
202	0x3fee230bca6cf0e2	0.9417780831932101
203	0x3fb811d56edd0e96	0.09402212101582061
204	0x402265491c733cd0	9.197823418681224
205	0x3fc47d6256a30afb	0.16007642011944498
206	0xbfa51d509019d70b	-0.041239278402754286
207	0x40005285537b1e8a	2.0402933618495966
208	0x3fd3f7f74d56addd	0.31200964500996325
209	0x3fd9eb613a548a23	0.40499144264518544
210	0x3fd534ca789af695	0.33134710100044035
211	0xbfa86f0727a03586	-0.04772207602227767
212	0x3fc97425804bba85	0.19885700954860766
213	0x3fc4d916956dc86c	0.16287500664072085
214	0x3fe9c7eceb3ddfaa	0.8056549639286363
215	0x3fe514986f3863fe	0.658764092661954
216	0x3fffdb5f5b8f9369	1.991057737025779
217	0x40165a82c75be2a9	5.5883895063240425
218	0x3fe1884bc7eab8ba	0.5478876976610743
219	0x4015ad8a98eecad9	5.419474019598703
220	0x3fd40731fe68b6c7	0.31293916554100715
221	0x3fc196185c9f9bd9	0.13739304087286433
222	0x3fcff853666ed44b	0.2497658014450813
223	0x3fcc1d84e8149c00	0.2196508534627526
224	0x3fcea2bd0e853a97	0.23934138497357502
225	0x3fd94adcabaaae58	0.3951942135269966
226	0x3fd5c31a480eb23c	0.3400331214604966
227	0x3fbfd7926a32e53f	0.12438311665291212
228	0x3fd09378d416891c	0.259000975720612
229	0x4001fed139ad7a43	2.249422503096214
230	0x3fb48b50fc855093	0.08025079884584078
231	0x4017158244f0757f	5.771004750420047
232	0x3fd70691b46e41f2	0.35977594967064797
233	0x3fd7abc29e1e100f	0.36985841218143006
234	0x3fd8a18c62689ff5	0.38486013040755945
235	0x3fc5347a1c5b4c12	0.1656639708004098
236	0x3fcd159ee7d8abad	0.22722231217025293
237	0x3fd253c0e5782d5d	0.2863619080460092
238	0x3fca4e845b8192b4	0.20552114933083987
239	0x3fc37f61cccf4971	0.15232489109491668
240	0x3fbcf1a9fda66207	0.11306250040650677
241	0x3fbea535ef6188f7	0.11970841497671701
242	0x3f922294d1c478ac	0.01771004228896149
243	0x3fd5a7708367c4b6	0.3383446963553739
244	0x3fac0c58c80d6121	0.054781698627893734
245	0x3fc60cfd8a94c4eb	0.17227143541962361
246	0x3fd6ae578ae02132	0.3543909889417761
247	0x3fe516eb7000dd4e	0.6590478122297243
248	0x3fc89a2470236e0c	0.19220405078418457
249	0x3fe5e9115c689326	0.684700661168425
250	0x4013a03637c3dc7a	4.906456824616834
251	0x3fd5b5cd35801f74	0.33922128891617054
252	0x3fc7838ed21460fa	0.1837023282794304
253	0x3ffddceee071bd91	1.8664387481074736
254	0x4010e363db5ac609	4.222060611167316
255	0x40006b7228ea0439	2.052463836328141

bias f8 [32]
0	0x3fecfed1b2dc3df4	0.9061058514943725
1	0x3fd0e44d38cb4ed9	0.2639344267492852
2	0x3fe3a7ddbc7a2136	0.6142414742653617
3	0x3fd2814b3468dec0	0.28914146535997176
4	0xbfded58c608fe14c	-0.481783956812724
5	0x3fd7b0c46fe88cf5	0.3701640217643239
6	0x3fca5a903983fb9d	0.20588877495171412
7	0x3ff1f464f8c80728	1.1221666067144245
8	0x3ff81ed4d3147bbd	1.5075271840394031
9	0x3ff25e4cdaacf90d	1.1480225126284183
10	0xbfdcbd54cbb52862	-0.4490558614094252
11	0xbfebb07759e9c6fb	-0.8652912860981979
12	0xbfc058ccf0a8d8e9	-0.12770997763590877
13	0x3fdf7b8ed92038cc	0.49191638187120357
14	0xbfdd5744f37318fe	-0.45845149778723726
15	0x3fec6b0731f15e79	0.8880649543234106
16	0x3fd293a11d29c32e	0.2902605805202708
17	0xbfed3cd276a8f48a	-0.9136745755746614
18	0xbfe12bf0dfdbf2fa	-0.5366138813256776
19	0x3fdfd8c5155a84af	0.4976055820971607
20	0x3ff6d79134e78930	1.427628714235265
21	0x3fe1f66a300fd7a4	0.5613299311360049
22	0xbff1b1058320ff46	-1.105718147489783
23	0x3ff127e8befbbeda	1.0722434482849423
24	0xbfe590f70879a3da	-0.6739459195642852
25	0x3fe41b080da1617b	0.6282997385233523
26	0x3fe7e03fb0835498	0.7461241195220678
27	0x3fe4d3e7fb7bd4ea	0.6508674537459715
28	0xbfeab236acb93969	-0.8342545865541925
29	0xbff3919d35b50429	-1.2230503175671947
30	0xbfecd643f47f28e5	-0.9011554503752249
31	0xbff55dcafa8e2f43	-1.3353986537285472

weight f8 [8, 32]
0	0xbfd3eca00d7b819f	-0.31131745640416314
1	0xbff8ab5e66addc1f	-1.5418380747703464
2	0xbfac2921ffde6bd6	-0.05500131843947258
3	0xbfcbed1919a69a10	-0.21817315819244287
4	0x3fe5e296cde8484d	0.6839097997310631
5	0xbf9095f2e3d6cbea	-0.016197009235565142
6	0xc0122adc20995250	-4.5418553441600835
7	0xbfd02ab3b7b12d18	-0.2526063245647534
8	0xbfca015414fd6de8	-0.20316554093265826
9	0xbfc84a8f7b22ea9f	-0.18977540504950682
10	0xbfc392101dfa5e4a	-0.15289498771447746
11	0xc035480c308c8ab5	-21.281435999214143
12	0x401c9a1977837bab	7.150487773323145
13	0xbfc1246abbf02814	-0.13392385651269534
14	0xbfb86fc41917b4fd	-0.09545541393864095
15	0xbfe7694af66e7c1d	-0.7316031277767966
16	0xbfa7d1afbca3ddb2	-0.04652165582404723
17	0xbfc242483e8f9381	-0.14264777235726103
18	0x3fc49cc562d2726b	0.16103427243514842
19	0xbfca5ccfedf698ea	-0.20595740432072002
20	0x3f9d702284507970	0.028748072934939584
21	0xbfdc9258fe166bef	-0.44643235028496425
22	0x3fd9f1be24a0753d	0.40537980629763465
23	0xbfe2963608c3811f	-0.5808363124051857
24	0xbfbf499c039980af	-0.12221694076424926
25	0x3fb6cb201c446a2f	0.08903694810980121
26	0x3fbaaa904aabc93b	0.1041650945951788
27	0x3fb0cb300d4c4a5c	0.06560039829882086
28	0xbfe758a71ea1eefc	-0.7295718763629959
29	0xc03724f985dd72a4	-23.144432417454155
30	0xbfb85c940f7692f5	-0.09516263368147888
31	0xbfc7b0bc946e8a73	-0.18508107421537864
32	0xbfc1e5340aa69cb1	-0.13980722923336011
33	0xc040ed2c1e072415	-33.85290885304145
34	0xbfab05427b57665d	-0.052774503284763276
35	0xbfd4d396ff799629	-0.3254144186852011
36	0xbfeb253a4b2be7d0	-0.8482943981355167
37	0xbfdec551b4d265b7	-0.48079340608964166
38	0x401026b514ede0f1	4.037800147074663
39	0xbfdcdfaadaa23c0d	-0.45115157462072447
40	0xbfdc1f28d47ea2c1	-0.4394018244879981
41	0xbfb7f6c6d7cbe0a0	-0.09360926407305437
42	0xbfda9afc1921f5c7	-0.41570951895104397
43	0xbfe1ac478ce19527	-0.5522802115998829
44	0xc01c319bb5dfea41	-7.0484455507199195
45	0xbfdae27e02b09ff9	-0.42007398855866956
46	0xbfb132986e7b6213	-0.06717827508271794
47	0xbfea49e67c84726e	-0.8215210372905639
48	0xbf94b0ffb029cff1	-0.02020644676890976
49	0xbfccb26d1029985a	-0.22419513024505272
50	0xbfd2caf7d7a47727	-0.2936381917842134
51	0xbfc86942351c6e79	-0.19071223824800024
52	0x400b5d0a148d7e9f	3.4204293828659753
53	0x3faa0573a2bd19fa	0.050822843185006364
54	0x3fd3eb47768222e0	0.31123529980736286
55	0xbfe20a57c2b526f7	-0.5637625506289784
56	0xbfc4e7f3b86a2b8e	-0.16332861427903506
57	0x3fd39293f36bed15	0.30582140704764643
58	0x3ff4fd72c8cc321c	1.311877045026569
59	0xbfd517b7a76893ce	-0.3295725951050458
60	0xbfe4047c234968d9	-0.6255474747843223
61	0xc016f8e3b4a247f9	-5.7430561279343175
62	0xbfd843ad44e803f3	-0.37913066605693685
63	0xbfcc7bb95afa10b8	-0.2225257581923239
64	0xbfe8937b6f39321f	-0.7680031940777247
65	0xc0155881d62cac69	-5.3364327873961
66	0xbfd991a25bd41492	-0.39951380698796257
67	0xbfe2ba7845fd8a31	-0.5852624289512446
68	0xbff4e328eef3f6a4	-1.3054589590168826
69	0xbfe24ff35edcf4be	-0.572259602813254
70	0x3ff4989545f0b596	1.2872517330209567
71	0xbfdf9c08dc4111d7	-0.49389859685132137
72	0xbfda738188138a40	-0.4132999256964105
73	0xbfca70336353fc78	-0.20654909467700455
74	0xbfe6714ac1ca7e7a	-0.701329592226059
75	0x3fdd9dc84296d62c	0.4627552652631006
76	0xc03683193cc10549	-22.51210384094637
77	0xbfe8a30da0cc2476	-0.7699039593291122
78	0xbfd52582917b4a4f	-0.3304144306868339
79	0xc04812f55d401729	-48.148112922949004
80	0x4009ed9b6dab62ea	3.2410191123893712
81	0xbfe83fb177655fd7	-0.7577750522568704
82	0xbfd07bce9fd94dd8	-0.2575565873168819
83	0xbfd4c564a47cadec	-0.32454792082964334
84	0xc00f7f37d148c6ec	-3.93711818221424
85	0xbfdfc2581594902e	-0.4962368212457048
86	0x3fd294bb271aaf77	0.29032782381795336
87	0xbff200def948f0cf	-1.1252126443569528
88	0xbfe92da5cd5a6ecd	-0.7868222246938444
89	0x4001d0ff28ae4a01	2.227049176997071
90	0xbff493cee648720c	-1.286085986655169
91	0xbfe4573410c098fb	-0.6356449439233808
92	0xc002ac74abe21a15	-2.334206908071119
93	0x40168a822d79307e	5.635262213250938
94	0xbfdd5752b9a2a4ea	-0.45845478180360877
95	0xbfe49c20285ca743	-0.6440583027190104
96	0xc0290a9f114d1390	-12.520744839342825
97	0x40161cfd3371f007	5.528309634999466
98	0xbfe1eaf8fe8c416a	-0.5599331828725955
99	0xbfe961dc4b0f4d2f	-0.7931958642970239
100	0xbfc18e613fa86c40	-0.1371575890378569
101	0xbfe5e0761a8555ec	-0.6836500661835863
102	0x3fd80eec4982cb52	0.3759108274345425
103	0xbfdf9b3de8e872cd	-0.493850209664555
104	0xbfe52460ec4890a1	-0.6606907477294223
105	0xbfdb6c8ff0c58920	-0.4285011149678599
106	0xbfe589b490f34987	-0.6730597334920255
107	0xbfdcc35630ec1756	-0.44942240502893094
108	0xbfe4d498eab630e3	-0.6509518226826255
109	0xbfe5ab54f04379b8	-0.6771645252845735
110	0xbfd68198287ddd42	-0.35165981249106804
111	0xc016cb323341643a	-5.698433686128789
112	0xc00740106545e04a	-2.9062812721204283
113	0xbfd0b478abed440e	-0.26101509847382054
114	0x3f780a9178705d09	0.005869453662874288
115	0xbfd9c16897c58878	-0.4024297220368065
116	0xc03aa4abb2bc0c9e	-26.643244906340094
117	0xbfe1930c52c73fec	-0.549200212170033
118	0x4014c42e04fa4e38	5.191581800248564
119	0xc04b6ff699e5fd64	-54.8747131703374
120	0xbfc42f942026bdae	-0.15770198411835906
121	0xc002f5534a5d1b82	-2.369787770239271
122	0xc02a263de99487d2	-13.074691104298754
123	0xbfe771acb7275789	-0.7326263024540235
124	0xbfc7f542bfc0c73a	-0.18717226374570278
125	0x3fee0367a49af738	0.9379156317661232
126	0xbfdd39e653ccbd5a	-0.4566589182240556
127	0xbfdef3189be5799c	-0.4835874102044728
128	0xbffb832e16d844af	-1.7195263759970592
129	0x3fec8e1ceabfdced	0.8923477730703816
130	0xbfe290b250a8d00a	-0.5801631522540458
131	0xbfe13ba8d9b2a263	-0.5385326625738113
132	0xbf9c573977f70221	-0.02767648501117226
133	0xbfe42e242cc07673	-0.6306324838694323
134	0xbf3cdc45be471ff7	-0.00044037535397167766
135	0xbfe20ca857b7a81d	-0.5640451157789844
136	0xc033813c981a45f0	-19.50483084336696
137	0xc0105ce6332f6e20	-4.090721893091114
138	0xbfd96c21d601268b	-0.397224863995327
139	0xbfe32d4c40400ed3	-0.5992795233618956
140	0xbfc8c5142525c2aa	-0.19351436437456943
141	0xbfd5e88992255c5a	-0.3423179557043504
142	0xbfe0efdc5678b16f	-0.5292798699279454
143	0x4015adae2a325ee8	5.419609698604951
144	0xc03b04cb163453aa	-27.018723857665158
145	0x400264abae4e419e	2.2991555802947934
146	0xbfb3923ae0f17e29	-0.07645004264622259
147	0xbfe71bcef408a010	-0.7221445814402632
148	0xbfdb26e152f9ae5b	-0.42424805739458343
149	0xbfe49d819cbbe531	-0.6442268429956696
150	0xc014e3de737567dc	-5.222528270760417
151	0xc016ef6f13d6e67e	-5.733822164527394
152	0x3ffa893189f99853	1.6584945096633603
153	0xc035f49b390ea0aa	-21.955493513175192
154	0xbfe0a747ebb44c90	-0.5204200366591909
155	0xbfe4e193f020418d	-0.6525363626442854
156	0xbfe46e2f59c6f030	-0.63845031294432
157	0x3fbdde750a614679	0.11667567733209151
158	0x3fbea422f643725a	0.1196920253018531
159	0xbfc8d6c09672fa36	-0.1940537199606795
160	0x4000a5c919dde858	2.080949976048071
161	0xbfbcc3cbce751f10	-0.11236261167971073
162	0xc0117b749d1c1ab4	-4.370562033501006
163	0xbfe10fbb512ec01c	-0.5331703744504952
164	0xbf9c2b78e2e69644	-0.02750958332912591
165	0xbfea0f5cb8a14b7d	-0.8143752676063368
166	0xbfdf920d12de19a0	-0.4932892498258301
167	0xbfe9daa57f9406e1	-0.8079402438890747
168	0xc01c0bacd9fd6962	-7.011401563732166
169	0xbff309697c00da66	-1.1897978633766342
170	0xbfe37433a25cfc45	-0.6079347773701406
171	0xbfeadba3817ec22c	-0.8393113640978007
172	0xbfd43bb68af8b576	-0.31614459582745924
173	0xbfe2de722007aa55	-0.5896540284714528
174	0xbff38717a7b2548c	-1.220481543602804
175	0x3fe4c12502e363a4	0.6485772186671181
176	0xbfe55a722b811d77	-0.6672907685942125
177	0xbfffb66123944243	-1.9820262327013018
178	0xbfc9500b196a5346	-0.1977552293871218
179	0xc0257568b977372f	-10.72931460933941
180	0xbfd72140bc464326	-0.3614045942895693
181	0xbfe887143260032d	-0.7664891227615037
182	0xc02c50c9fcf34b6f	-14.15779104680925
183	0x4016c07533c3cd1a	5.687947090936428
184	0xbffe6204ccda18ef	-1.8989303590802213
185	0xbfeb9720ae1caf2a	-0.8621982002855237
186	0xbfe0da16f17b9a2e	-0.5266222683392863
187	0xbfe68afb47bb161d	-0.7044655228607472
188	0xbff4a6437b11995e	-1.2905916983960064
189	0xbfd667b3892460b4	-0.3500794257429434
190	0x3ffde1a90e60a370	1.867592865144811
191	0x4008bc67ef3dab0f	3.091995114392723
192	0x3fd1b3add56e1b0e	0.2765917381552051
193	0x3fd0018201214b1b	0.2500920306239764
194	0xc0141d6954d65c18	-5.02872211988781
195	0xbfd6ec99d84a07e0	-0.358190976352601
196	0x3fa638c46630e0a5	0.043401849245527736
197	0xbfcbc5c34a8f7af2	-0.21697274342201173
198	0xbfb9a83f0b72b3d0	-0.10022348432057915
199	0xbfd1eb1d158191b5	-0.2799751958866879
200	0x40190a77d248cbf1	6.260222707455783
201	0x3fe1797c4b49afd8	0.5460797758546461
202	0x3fd04de0e85f6a7b	0.2547533292069272
203	0xbfd1dbe2600f4af7	-0.2790456712802291
204	0xbfd17b82a6e84f25	-0.2731634740787164
205	0xbfe2824da718921d	-0.5784061683266973
206	0xbfe4a9df325db4a9	-0.6457363113128355
207	0x3fd4ef5a95672910	0.3271089991582281
208	0xbf98539a74aa7108	-0.02375642144271331
209	0xc00d23402f48dab2	-3.6422122663601266
210	0xbfc830d6d9fde1ed	-0.18899045604827283
211	0xc01be69361589474	-6.975171586066711
212	0xbfc8a3f8d8d8be50	-0.19250403011527562
213	0xbfe20664b306fd18	-0.5632804390551511
214	0xbfe8dfd7bc4880fe	-0.7773245503813369
215	0x3ff5c0478d96e26f	1.3594432383380555
216	0xc01bb77efadba958	-6.929195327431749
217	0xc0084003ce5d575e	-3.03125725958209
218	0xbfe28505918a4c19	-0.5787380068380826
219	0xbfdca6eb8a0e3754	-0.4476879928778221
220	0xbfd1a580a1eb7a88	-0.2757264691589758
221	0xbfa2d39a5710e7fc	-0.0367706519395625
222	0xbffc695bf7c201cf	-1.775722472957671
223	0xc00a2d7df3b06574	-3.2722128904539947
224	0xbfd560b3f7559bf1	-0.33402728227377937
225	0xbfd1557cdf66a687	-0.27084276024343307
226	0x4012f32c04dbbeff	4.7374726065752375
227	0xbfeac2e7f2820069	-0.8362922417145572
228	0xbfc3050598be23ef	-0.14859075506345173
229	0xbfeb877e420c1ea8	-0.8602896966921962
230	0xbfdca721ad5fe73d	-0.44770090037455984
231	0xbfe34280cd8c6f08	-0.6018680586452954
232	0x3fe17df4ce41ee69	0.5466255215137156
233	0x3fd1f9c85078d22c	0.28087051256742046
234	0xbff2ee88de8baa84	-1.1832359975038864
235	0xbfe3e09b6ea60af4	-0.6211678658586082
236	0xbfd551b93d651417	-0.3331130122717822
237	0xbfe0c852a9a11d70	-0.5244534791062687
238	0x3feae038d13bf283	0.8398708426098697
239	0xbf95899adee9f22c	-0.02103273377950836
240	0xbfe523224ae8b763	-0.6605388129298543
241	0xbfe4b83237aba6db	-0.6474848830523244
242	0x3fca7b97e8e14e19	0.20689677115534336
243	0x401b5bf5177d5a08	6.839802138353214
244	0xbfd896492163b1e5	-0.3841727090901073
245	0xbfe94394015201ca	-0.7894992852962386
246	0xbff04bea0f08373c	-1.0185337626639486
247	0x3fe5a03f16708dd5	0.6758113325380984
248	0xbfda4699dec204eb	-0.4105591464395519
249	0x4003f2d00f0216a0	2.493560902835114
250	0xbfe082c7591ca6b4	-0.5159641972033655
251	0xbfe3be05dcfa196f	-0.6169461551624361
252	0x3fd9c6f1c60438d8	0.40276760423229296
253	0xbfe0f2bf47f90048	-0.5296322255817438
254	0xc0160be4bdae1939	-5.511614764929896
255	0xc03c5339dc7dca4d	-28.325101643286235

bias f8 [8]
0	0xbfcd6495eb464202	-0.22963212955484386
1	0xbfd4f808a533418d	-0.3276387799533261
2	0xbfea858c39795a7a	-0.8288022158183843
3	0xbfe1b809cd95abf2	-0.5537156119656841
4	0xbfe269ad038bb52c	-0.5753998822453119
5	0xbfe06a725a660595	-0.5129939809414049
6	0xbfdd8e1f93f43b81	-0.46179952095638305
7	0xbfddaa28b0fea70c	-0.4635106781448577
